training_service/models/job_81f38e08_model.pth (torch, 21401 bytes, 5 tensors)

network.0.weight f4 [64, 4]
00000000: a0a3 d6be a6ba babe cc19 6fbe 08cf 81bd
00000010: 1154 e13e 4d5c aa3e 7074 36be de50 8bbc
00000020: e63e 8abe c821 343e 6279 8bbe 178d d83e
00000030: 40c5 513e 44d6 cf3d fdaa 80be 16de d2be
00000040: 68f5 e33e 985b bcbe 668c fa3e f5eb e1be
00000050: 2190 10be 6449 c3be b3b6 b43e 629b ba3e
00000060: 7467 3ebe c2c3 fbbe 103e 09bd 8a81 87be
00000070: 0768 65be 5707 c4be 07d5 eebe 0277 093f
00000080: f504 d03e d0ba 013f b3f6 213d 31b6 1ebe
00000090: 59d1 873d f81c b13e 16ef d53e d135 cdbe
000000a0: df25 893e 9768 f1be 99fb 9cbd 1c44 a5bc
000000b0: c02a 4ebe fc31 0cbe 8835 e93e a4de f6be
000000c0: 37ae e33e 9860 a2be babb cf3e 07ed 643e
000000d0: 7214 d0be f49e 973e 484f c7bd 4694 99be
000000e0: 149e 55be 883c 59be d899 e9be c0f1 10bc
000000f0: cf0f 80be 0310 293e 8dfc e63e d3bf a23e
00000100: 329b a9be 703e 803e 70d7 143e 408a 7cbe
00000110: 005e 553e 660d 21be 9cbf d1be 9e9c 7e3e
00000120: fdaa fabe 2be5 bf3e e2a0 39be e9c8 e03e
00000130: 2e6a aabe 9c34 533e 3030 9a3e 4e62 fdbe
00000140: 6050 9a3a b40b da3e 95f2 823e 9507 4cbe
00000150: 539d 683e 2432 4fbe 728f 6f3e 7f88 65be
00000160: 64c2 49be 80ab 843d f6c6 febe da41 eabe
00000170: f8f7 2ebd 2b45 a73e 1bfd 3ebe 15d8 8b3d
00000180: 66ed eabe d449 96be 8ccd aebe baab a3be
00000190: 84e0 f1be 78b6 c8be 806e 8ebc 982d b33d
000001a0: 10cb d83d 3068 01be 28c0 91be 5456 71be
000001b0: ce45 b33e e237 28bd 9f7b 443d c9d0 dfbe
000001c0: 62cf d73e ef80 f13e a846 c7be 67c2 5d3e
000001d0: f438 e5be 36d7 f9be b4f3 843e 462a d8be
000001e0: 148c 2a3e 4818 9dbe e067 293d f6ec 9abe
000001f0: 6834 90bd 488a dd3e 3875 3b3e 70ff e1be
00000200: 48b6 b5be 581f cf3e 34cd 6b3d aff7 d13e
00000210: de4d 0e3e 6796 c3be 4579 ba3e dab2 7dbe
00000220: 0921 6fbe 818f 133e 7b61 403e e7aa f33e
00000230: c296 81bc 76f9 e73e 675f ed3e abb4 16be
00000240: 2eea 9ebe c050 6e3e d051 9c3d 9860 91bd
00000250: 7422 bcbe 80bd 2fbe 0e63 dabe 5eab cbbe
00000260: 86d6 5f3c a4f5 adbd c4c8 863e f723 a63d
00000270: e42d c53e fa96 14be 58d5 39be 404b fe3e
00000280: 7ca7 a7be 5cf4 d23e 604a 3b3d 18f8 90bd
00000290: cf86 46bd 3569 b93e a1f5 b03e 0098 e83d
000002a0: 64d9 19bd 73d3 f1be 0e4b f5be 2b81 a43e
000002b0: 6498 763e 8d00 323d 7d97 723e 7905 2dbd
000002c0: aa18 4ebe c075 5d3e 4076 a2bd 4fc1 e83e
000002d0: d24f 623e a565 fe3e 1341 8ebe 89f0 6ebb
000002e0: 1fd4 84be f017 a73e 0fc3 3d3e 962c 37bd
000002f0: 7937 1cbd b775 873e fe01 003f fa70 283e
00000300: 807b 0abd b0f1 293d 2892 0d3e b837 cfbe
00000310: 2040 e3bc 8442 003e 2ccb 343e ac8e cfbe
00000320: d0f3 6ebd 3e9f e2be a8a7 e63e 0047 48bd
00000330: 20ea eabc 403b 123d 4643 ffbe 2059 cbbc
00000340: 1405 3e3d 460f 02be d188 733e ae46 553d
00000350: 4a6b db3d b097 b1be dda1 4dbe 2a28 883d
00000360: d823 883d 1a02 f9be 4043 6bbe 480f 13be
00000370: 2c4a 88be 501a 2d3d a029 9e3e cad2 a5be
00000380: f04e 51bd d801 b63d 20c3 4ebe d032 e9bd
00000390: 080f 113a 077a f73e 7a16 c43e ee84 d4be
000003a0: de4b ad3d 032a 813e 8d4b de3e ac5a e63e
000003b0: e461 08be 7c64 a0be 1450 8b3e 7093 f9bd
000003c0: 32f6 fcbe 727d f0be eeae 9bbe 6886 8abe
000003d0: 64f7 443e c807 dfbe e68a a8be 2405 bcbe
000003e0: 5397 bbbe 7b1b 033f 4c65 bb3e 734e 0e3e
000003f0: d2df 13be fd9b 973e b528 f2bd 9bbf eb3e
-0.4192171 -0.36470526 -0.23349684 -0.06338316 0.4400945 0.33273545 -0.17817855 -0.017006334
-0.27001113 0.17591012 -0.27241045 0.42295143 0.20485401 0.1014829 -0.25130454 -0.41185063
0.44523168 -0.3678863 0.4893524 -0.44125333 -0.14117481 -0.3814193 0.35295638 0.36446673
-0.18594152 -0.4917279 -0.033506453 -0.26466018 -0.22402965 -0.3828685 -0.46646902 0.53697217
0.40628782 0.5067568 0.03954191 -0.15499188 0.06631727 0.34592414 0.4178397 -0.4008012
0.26786706 -0.47150108 -0.07665176 -0.020174079 -0.20133495 -0.13690943 0.45548654 -0.48216736
0.44468853 -0.3171432 0.40572912 0.22356044 -0.406406 0.2961346 -0.097319186 -0.29995936
-0.20861083 -0.21214497 -0.45625186 -0.0088467 -0.2501206 0.16510014 0.45114556 0.31786975
-0.33126217 0.25047636 0.14535308 -0.24662113 0.2083664 -0.15727767 -0.409665 0.24864432
-0.4895858 0.3747953 -0.18127778 0.43903282 -0.33284134 0.20625538 0.3011489 -0.49489063
0.0011773221 0.42587054 0.255757 -0.19924767 0.22716264 -0.20233971 0.23394564 -0.2241535
-0.1970306 0.064780235 -0.4976117 -0.45753366 -0.04271695 0.32669958 -0.1865124 0.06828324
-0.45884246 -0.293532 -0.34141195 -0.31966954 -0.47241604 -0.39201713 -0.017386675 0.08748931
0.10585606 -0.126374 -0.28466916 -0.23568088 0.35014194 -0.04106892 0.047969457 -0.43713978
0.42150408 0.4716868 -0.38921094 0.2165619 -0.44770014 -0.48797005 0.2596718 -0.42219752
0.16654998 -0.30682588 0.04135883 -0.30258912 -0.07041246 0.43269563 0.18306434 -0.44140196
-0.35490632 0.404536 0.057568744 0.4100928 0.13896891 -0.38200685 0.36420646 -0.24775258
-0.23352446 0.14410211 0.18787186 0.47591326 -0.015818957 0.4530751 0.4636185 -0.14717357
-0.3103804 0.23272991 0.07632792 -0.07098502 -0.36745036 -0.17162132 -0.42653698 -0.3977918
0.013661986 -0.08494118 0.26325047 0.081123285 0.38511574 -0.14510718 -0.1814779 0.49666786
-0.32744968 0.41202056 0.045725226 -0.0707857 -0.048468407 0.3621308 0.345624 0.11357117
-0.037560835 -0.47231635 -0.47908825 0.32129797 0.2408157 0.043457557 0.236906 -0.042241547
-0.20126596 0.2162695 -0.07932711 0.45459983 0.22100762 0.49686924 -0.27784023 -0.0036459288
-0.25943086 0.3263545 0.1853144 -0.044720255 -0.03813884 0.26456997 0.5000304 0.16449347
-0.033809185 0.041490257 0.13825285 -0.40472198 -0.027740538 0.12525374 0.17655629 -0.40538538
-0.058337986 -0.44262117 0.45049787 -0.048895836 -0.028676093 0.035701036 -0.49856013 -0.024822772
0.04639156 -0.12701139 0.2378266 0.05206936 0.10713823 -0.3468604 -0.20081277 0.06648286
0.06647462 -0.48634416 -0.22974873 -0.14361298 -0.2661909 0.04226142 0.30891132 -0.32387382
-0.05110067 0.088870704 -0.20191622 -0.11386645 0.0005533551 0.48335287 0.38298398 -0.41507667
0.08461736 0.25227365 0.43417016 0.44991052 -0.13318592 -0.31326663 0.27209532 -0.121863246
-0.49406582 -0.46970707 -0.30406898 -0.2705567 0.19234997 -0.43560624 -0.3291847 -0.36722672
-0.3663889 0.51213807 0.3660072 0.13897114 -0.1444085 0.29611197 -0.118241705 0.4604462

network.0.bias f4 [64]
00000000: 18e7 c9bd 1c5b 9a3e b6cd a9be b6d8 81be
00000010: cb2e f23e d75d 093e 8cf4 36be 114e 8c3e
00000020: fa8e 67be 55ba cf3e 474a d9be 3067 be3e
00000030: 4e4d 1d3d 00e9 27bb 7a5b aa3e d887 b73e
00000040: 4a4b aebe 275f eb3e c38d b33d 40ca d83c
00000050: ce1f 9cbe f5e3 38be 2cf8 d1be 7b41 9739
00000060: e4b8 5b3e 0058 a4bd dc05 68be daf9 9c3e
00000070: b9a1 f8be 0c9d f13e 9032 afbe 8423 debe
00000080: 024d b43e 871f f33e 3cd0 853d 94c4 5a3e
00000090: b027 42bd ea41 e53e b848 013f c7f8 7e3e
000000a0: 48ad 1d3e 48d9 503e ee48 d23e d8d3 cabe
000000b0: ee56 fe3e 0933 813d f22f 883e c7b6 1bbe
000000c0: 60e0 c33d 58c5 58be 8092 1fbe e233 b83e
000000d0: b826 efbe 1a02 963d 4871 bbbe 36b5 e13e
000000e0: 3e35 8b3e 4cf3 b33d 4c9c 90be a4c6 37be
000000f0: 480f 8d3e 9452 06be db53 ad3e 4c12 73be
-0.09858531 0.30147636 -0.33164757 -0.2536065 0.47301325 0.13414703 -0.17866725 0.2740331
-0.22613135 0.40571848 -0.42439482 0.371881 0.0384038 -0.0025621057 0.33272916 0.35845828
-0.34041816 0.45971033 0.08767273 0.026463628 -0.30493015 -0.18055709 -0.41009653 0.0002884975
0.21457249 -0.08024597 -0.22658485 0.30659372 -0.48560885 0.4719013 -0.34218264 -0.4338647
0.35215002 0.4748499 0.06533858 0.21364051 -0.04740113 0.4477685 0.50501585 0.24899589
0.15398133 0.20395386 0.41071266 -0.3961475 0.49675697 0.06308562 0.2659908 -0.15206443
0.095642805 -0.2116903 -0.15583229 0.35977083 -0.46709228 0.073246196 -0.36609864 0.44083565
0.27189058 0.087866396 -0.28244245 -0.17946869 0.2755072 -0.13117439 0.3385304 -0.23737448

network.2.weight f4 [64, 64]
00000000: 009d bf3d 85f8 843c 79b8 88bd 176b 6c3d
00000010: d101 0ebe f43a 713d 04d3 e9bd 896f 8bbc
00000020: c88d b43a 09e2 8b3c 662f bf3c 7016 b4bc
00000030: 71ac 0abd d85b 07bd 2432 bb3d d513 87bd
00000040: 567d dbbd 6532 ebbc 9112 b5bc e224 e23d
00000050: a7af 8dbd a9fb 38bd 4074 953b eb5c 5fbd
00000060: cc9e eb3d 1816 503d f2b5 e9bd ba94 d1bb
00000070: cd07 513b 1c1d dfbd 4cb9 e53d 8cb7 1bbd
00000080: 95bd 65bd 08bd e93d 2963 883d ab2e b43d
00000090: 40f0 e2bc aa07 c13d 3ad3 15bd 0b94 a8bd
000000a0: 10cc 01bc 6576 7abd add1 f7bd a923 d33d
000000b0: fbd5 403c 3607 9d3d f42b 91bd 18ef 7d3d
000000c0: b297 e63d 00f9 11ba 867a 87bd bacb 8bbd
000000d0: 951e b0bd 5b64 05bd 9867 ec3d c859 c1bd
000000e0: 0059 02bb c50d 02be 4fbe bf3c 8c37 8b3d
000000f0: 702a 843d 421a ddbd 03f5 3b3c 3d43 d4bc
00000100: 2cb9 c3bd 462d e2bd ec83 4f3d b455 b9bd
00000110: c8f9 2fbd 881f e13d 2ecd 94bd 5a37 823d
00000120: 1457 11bd 8a6f 89bd 20b9 ffbb e03d c4bc
00000130: 78bb aa3d b0c5 123d f0d9 e4bd c83d 223d
00000140: 7608 a13d 40ba 95bb f85c d33c 28f5 893c
00000150: bef1 f73d f2f0 d2bd fc8a 973d 98b7 39bd
00000160: d428 b8bd 30d0 b23c f64f fdbd d0a5 363c
00000170: a073 68bd 105d c6bc 8804 45bd c4e1 28bd
00000180: 44ed 8c3d 4078 5dbd 482f 78bd 80c1 8ebd
00000190: f0a1 c2bd 68e8 ce3d 60c7 903c 683e dabc
000001a0: e00f 55bd 1cd7 7e3d 4e7b b83d 846a bebd
000001b0: 00c9 6ebc 2050 6cbd 8a1e a63d 80fe bbbb
000001c0: ae84 ef3d b6c1 af3d 8cc6 593d b036 ad3d
000001d0: a8dc 933d a21c b4bd e6b8 bb3d c013 fc3d
000001e0: 4239 cebd b42e 443d 0028 90b9 2097 d03d
000001f0: 28b3 86bc aca3 5abd eaff 93bd 7aa4 cb3d
00000200: 8822 bf3d a203 173c 43c8 15be be7b 713d
00000210: 3377 ad3d 41fe fcbd f8d8 053d e552 2a3e
00000220: 66d3 a2bc 8b95 13be 8297 09be 64a0 57bd
00000230: 86d1 8dbc 32c3 d03d 6251 babd 4701 a6bc
00000240: b4cb 01bd 6993 bd3d 80f4 eebd 0a58 f03d
00000250: 0f3b 94bd fe85 d9bd c4cf 4ebd 9024 cebc
00000260: eeed ef3d dc1d 483d e252 e63d 395b ffbd
00000270: 243d ff3c 60ce bfbd 8810 173d a4d1 f5bd
00000280: e834 813d ccf0 76bd d417 bd3d 635f f23c
00000290: 70a9 533d 5889 02bd 2829 58bd 2005 7f3d
000002a0: 88b9 ba3d bfc6 463d e22a 6abd eb96 b6bd
000002b0: 9b12 9e3d 858b ff3c 795c b8bd 34fb dbbd
000002c0: 8022 90bc 34aa 82bd 5e81 b53d 0682 e7bd
000002d0: 4edc 913d 8c8d 9abd 78a5 083d d0c3 18bc
000002e0: 6827 223d c6bc b7bd e747 0abc 0065 93bd
000002f0: 90d5 b6bd 2803 523d d17f d2bd 656e 9b3d
00000300: 66eb b03d 24d5 f2bd 3882 42bd 1636 a9bd
00000310: 3839 813c 88f0 6b3d 1ab3 92bd 16e0 d43d
00000320: 2c84 473d f04a f9bd 78f5 6c3d ac56 d73d
00000330: 307d cebd 0059 92bd 1253 98bd e8b1 a83d
00000340: a242 d63d e4f4 a1bd 4ede c3bd b8fd a93c
00000350: 2879 68bd 6e72 d3bd aa11 febd 042c a03d
00000360: 1e46 c5bd 64ed 68bd d0e3 57bc acfa 2dbd
00000370: 0030 903a 30de 49bc 7059 3d3d 4821 d23c
00000380: c47d 7e3d 2631 f33d 64e7 c33d ccf9 5f3d
00000390: 3074 92bc bcfe 0b3d 0898 f1bd 4ca7 ffbd
000003a0: c4f7 e63d 2a6e a93d 60d4 563c 8068 96bc
000003b0: 7895 323d 38b6 6f3d 88ce 913c 6026 813c
000003c0: f0b7 243d 6c20 b8bd 9084 823c 8653 8ebd
000003d0: e8e9 9f3c d825 44bd 804b a5bc 827f ce3d
000003e0: c67a bdbd 103a 783d 60d9 313c dc22 223d
000003f0: ecd3 d93d d882 d5bc ec42 98bd ee00 b4bd
0.09356117 0.016231785 -0.0667581 0.057719316 -0.1386788 0.058894113 -0.11417201 -0.017020958
0.0013775164 0.017075555 0.023338031 -0.021983355 -0.03385586 -0.033046573 0.09140423 -0.065955795
-0.10717265 -0.028710553 -0.02210358 0.11042191 -0.06918269 -0.045161877 0.004560977 -0.054531973
0.115048975 0.05080232 -0.114116564 -0.0063959034 0.0031895519 -0.10894224 0.11216983 -0.03801684
-0.056089003 0.11413008 0.06659538 0.08797964 -0.02770245 0.0942529 -0.036578394 -0.08231362
-0.007922187 -0.061148066 -0.12100539 0.10309536 0.011769767 0.07667391 -0.070884615 0.061995596
0.11259402 -0.0005568415 -0.06615166 -0.06825967 -0.08599583 -0.03256641 0.115431964 -0.094409525
-0.0019889474 -0.12700565 0.023406176 0.06797704 0.06453407 -0.10796024 0.01147199 -0.025910968
-0.09556803 -0.110437915 0.05066292 -0.0904955 -0.04296282 0.10992342 -0.072656974 0.06358214
-0.035483435 -0.067107275 -0.007804051 -0.023955286 0.08336538 0.03583306 -0.11174381 0.0396097
0.07862942 -0.004569322 0.025801167 0.016840532 0.121066555 -0.10299863 0.07399556 -0.045341104
-0.08992162 0.021827787 -0.12368767 0.011147931 -0.056750894 -0.024214298 -0.048100024 -0.041230932
0.06881192 -0.054069757 -0.060591966 -0.06970501 -0.095035434 0.10102922 0.017673194 -0.026641086
-0.052017093 0.062216863 0.090078935 -0.0929766 -0.014574289 -0.0576936 0.081112936 -0.005737126
0.116952285 0.08581869 0.053167865 0.084576964 0.07219821 -0.08794524 0.09166126 0.123084545
-0.10069515 0.047896102 -0.00027495623 0.10185075 -0.01644285 -0.053378746 -0.07226546 0.09943481
0.09332758 0.009217175 -0.14627175 0.0589559 0.08470001 -0.123531826 0.03267762 0.16633184
-0.019876193 -0.14412515 -0.13436702 -0.052643195 -0.017311823 0.101934806 -0.09097554 -0.020264281
-0.031688407 0.09256632 -0.116677284 0.11735542 -0.07237827 -0.1062126 -0.05049111 -0.025163919
0.11715303 0.0488566 0.112462774 -0.12468571 0.031157084 -0.09365535 0.036881 -0.120028764
0.06308919 -0.060288236 0.092330605 0.0295865 0.05167526 -0.031869262 -0.052773625 0.062260747
0.091174185 0.048529383 -0.057169802 -0.08915504 0.077183925 0.031194458 -0.09002013 -0.107412726
-0.017594576 -0.0638012 0.088625655 -0.11304097 0.07122098 -0.07546529 0.03336093 -0.009324029
0.039588362 -0.089715526 -0.008439994 -0.071969986 -0.089274526 0.05127254 -0.10278285 0.075894155
0.08638649 -0.118570596 -0.047487468 -0.08262269 0.015774354 0.057602435 -0.07163067 0.103943035
0.048710033 -0.12172496 0.057851285 0.10514578 -0.10082471 -0.07145882 -0.074377194 0.08237058
0.10461928 -0.07908037 -0.09563886 0.020750865 -0.05675617 -0.1032456 -0.12405713 0.07820895
-0.096325144 -0.05686702 -0.013176873 -0.042475387 0.0011000633 -0.01232104 0.046227872 0.025650635
0.06213166 0.11874609 0.09565619 0.054681584 -0.017877668 0.03417848 -0.11796576 -0.12483081
0.11277726 0.08272965 0.013112158 -0.018360376 0.043599576 0.058523387 0.017798677 0.015765369
0.04021448 -0.08990559 0.015932351 -0.069495246 0.019520715 -0.047887653 -0.020177603 0.10082914
-0.09251933 0.060602248 0.010855049 0.039584026 0.10636124 -0.026063368 -0.07434639 -0.0878924

network.2.bias f4 [64]
00000000: 0477 d1bc 42ba 81bd e645 643d 4a0b e8bd
00000010: 7214 b83d 0d1e a7bd 6092 de3b 7984 e9bc
00000020: 0d61 9a3d 4710 52bd 627e df3d 30ed 9c3d
00000030: f9fe e03d 8493 633d 24e8 5bbd 5be0 603c
00000040: 372e 9bbb f886 693d f9e4 e1bd a8dd e2bd
00000050: a72f 1bba ac5a 063d 94d6 533c b836 6b3d
00000060: c89d a5bd fe15 cf3d b214 b73c 37cd 7d3d
00000070: ab4b cdbd f4e8 7b3d 7e0b 6bbd d672 a1bd
00000080: d0e0 71bd 7473 d13d 8b8e c93a 4ae1 acbd
00000090: 9c42 d73c 16a0 b03d 68ac cbbd 5f36 db3d
000000a0: e815 18bd 6bcf 61bc 549f b4bd 9067 77bc
000000b0: 23a1 45bd bc84 83bd 4caa f33d 3c04 0bbd
000000c0: 325b 0a3d 24e6 e23a 67e9 03be 6123 8dbd
000000d0: 6c2c fabc f88d f5bd 7709 803d c05c 933c
000000e0: 9129 0e3e 2e1a 99bd 948d 01bd 44aa d9bd
000000f0: 1e63 dbbd e451 843d a26d c73d 702e efbc
-0.025569446 -0.06334354 0.055730723 -0.11330278 0.08988275 -0.081600286 0.0067923516 -0.02850555
0.07538042 -0.051285055 0.109127775 0.076624274 0.10986132 0.055560604 -0.053688183 0.0137253655
-0.004735734 0.05701348 -0.11030001 -0.11077434 -0.00059198815 0.032801315 0.012929577 0.05742523
-0.08086735 0.101116166 0.022348735 0.061963286 -0.10024198 0.06150146 -0.057384007 -0.07883231
-0.05905229 0.10227099 0.0015377564 -0.08441408 0.026276879 0.08624284 -0.09944993 0.1070373
-0.037130266 -0.013782362 -0.08819452 -0.015100375 -0.048249375 -0.064218014 0.11897716 -0.033939585
0.033778377 0.0017311019 -0.12882005 -0.068915136 -0.03053876 -0.11989969 0.06251805 0.017988563
0.13883044 -0.074756965 -0.03162916 -0.10628179 -0.107122645 0.06460932 0.09737708 -0.029196948

network.4.weight f4 [1, 64]
00000000: 1b19 85bc b0f1 84bc ff67 52bc bcee fabd
00000010: 7019 063e 6fe6 053e bed8 c6bd 81cc 233d
00000020: 7cb1 0a3e 52f6 b73d 6f92 0d3e 1807 bcbc
00000030: c61f d63d 0433 833d cc87 eebd 2b19 933c
00000040: 9f6b ce3d e010 a6bb 92a6 443c e9e2 8dbd
00000050: 17ea e6bc 80bc ba3a cacb 8d3d b5bf 9dbd
00000060: fe4e af3d 594c f53d dc35 08bd 4fa5 4c3c
00000070: 553f 043e f058 6e3d a4e0 3cbd 408d 95bd
00000080: 40df 21bc 1f30 95bd 21c7 c7bd 1b19 a8bd
00000090: 9234 89bc 7cd8 10bd 002a d1bb d3d4 6bbd
000000a0: 6247 ec3d 1a5e b33d a492 f33c d0a5 203c
000000b0: 7fcc c5bc 7e3e 983c d64b b53d 68d9 293d
000000c0: 1271 9b3d 3af7 953c c367 2ebd 79e7 98bd
000000d0: 800c a93d 50fc ec3c c2a6 bfbd 05ae 08bd
000000e0: af8d 0b3d 04b7 9a3d 2275 45bc 331f 8dbd
000000f0: fe44 e7bd 7248 02bd 50ca 7bbc b6cc a3bd
-0.016247323 -0.016228527 -0.012842177 -0.12252566 0.13095641 0.13076185 -0.09709309 0.039989952
0.13544267 0.08982529 0.13825391 -0.022952601 0.10455279 0.06406215 -0.11646995 0.017956337
0.10079121 -0.0050679296 0.012002604 -0.06928045 -0.028187795 0.0014246851 0.06923635 -0.07702581
0.085599884 0.11977453 -0.03325449 0.0124905845 0.12914784 0.058190286 -0.04611267 -0.07302332
-0.009879887 -0.07284569 -0.09754778 -0.082079135 -0.0167487 -0.035362706 -0.0063831806 -0.057576012
0.11537053 0.08758183 0.02973301 0.009805158 -0.024145363 0.018584486 0.08852355 0.0414671
0.07589926 0.018306363 -0.042579424 -0.07466025 0.08254337 0.028928906 -0.093579784 -0.033369083
0.034070667 0.07554439 -0.012051852 -0.068907164 -0.11292456 -0.03180737 -0.015368059 -0.0799803
