training_service/models/job_d0459a5b_model.pth (torch, 21401 bytes, 5 tensors)

network.0.weight f4 [64, 4]
000000 c8 81 d5 3e fe ec c5 be f2 79 df 3e c1 0c 94 be
       0.41700578 -0.38657373 0.43647724 -0.2891598
000010 84 0e 82 be 78 1a f6 bd 48 02 af be 74 80 3d 3e
       -0.254017 -0.12016767 -0.34181428 0.18506032
000020 78 97 ef 3b 1f b2 f2 3e 7e 81 8e be b5 b7 41 be
       0.0073117577 0.4740152 -0.2783317 -0.18917735
000030 a4 25 f5 3d 97 f4 82 be 9c 89 46 3e 6a 12 71 be
       0.1197007 -0.25577232 0.19388431 -0.2354218
000040 b0 dd 4a bd 12 99 c9 be 12 46 94 be 70 d8 f0 be
       -0.049527824 -0.39374596 -0.2895971 -0.4704013
000050 98 25 ed 3e dd 3a e3 3d 1b f2 aa 3e 09 70 ec be
       0.46317744 0.11095212 0.33387837 -0.46179226
000060 5a 35 dd 3d 2e 95 f9 3c e8 7b 76 be 27 85 9e 3e
       0.10801192 0.030466642 -0.24070704 0.30960962
000070 9a 0b 9b be 18 16 da be 8a 42 f7 3e c8 64 b1 be
       -0.3028229 -0.4259498 0.48292953 -0.34647202
000080 ec f8 0a be ec c7 52 be 40 12 d7 bc 60 43 b3 be
       -0.13571519 -0.20584077 -0.02625382 -0.3501234
000090 81 ae be 3d cb de 86 bd 0f 7a 1b 3f ac 16 2e 3e
       0.09310628 -0.06585463 0.6073312 0.17000836
0000a0 a8 a1 34 3e 10 b4 e7 be 66 72 de be 92 cc f9 be
       0.17639792 -0.45254564 -0.43446654 -0.48788887
0000b0 1e 9f 97 be 6c 39 e6 be ce c6 e9 3e 20 14 56 be
       -0.29613584 -0.44965684 0.45659488 -0.20906115
0000c0 24 9d fe be 5e 91 d3 3e 30 ec 0b be 00 c8 d4 3a
       -0.49729264 0.41321844 -0.13664317 0.0016233921
0000d0 b0 e2 3d 3d 08 42 d5 be c0 f2 e9 bc e8 6b 90 be
       0.046358764 -0.4165194 -0.028558135 -0.28207326
0000e0 ac a0 90 3e a1 ac f5 be 4a 24 5b be 75 f6 2c 3e
       0.28247583 -0.47983268 -0.21400562 0.16890891
0000f0 ca 1c 8b be 02 b1 d6 3e fa 1a 5f 3d eb b8 c4 3e
       -0.27170402 0.4193192 0.054469086 0.3842233
000100 78 fe c0 be 7e f8 e6 be f4 1b c6 3e 68 e0 47 3e
       -0.37694144 -0.4511146 0.38693202 0.19519198
000110 1d 1d 99 3e a4 30 b9 3e aa b8 36 bc 79 d4 98 3e
       0.29905024 0.36169922 -0.011152426 0.29849604
000120 4a f9 b0 be 98 c4 43 3e fe ef a7 be cc d6 60 be
       -0.34565192 0.19117963 -0.32800287 -0.21956939
000130 42 21 ed be ec ec e8 3e 12 53 8b be 4a 89 d0 be
       -0.46314436 0.45493257 -0.27211815 -0.40729743
000140 df ca d8 3e 44 b2 a0 be 1a f7 e4 be 2e 69 2e 3e
       0.42342278 -0.31386006 -0.44719774 0.1703231
000150 60 9e 1a 3d 00 f4 f7 3c 52 94 aa be d6 a7 cc be
       0.037748694 0.030267715 -0.33316284 -0.399718
000160 15 da ba 3e 5e 7e ce 3e 89 ec 93 be 66 3f fd be
       0.36494508 0.40330786 -0.288914 -0.49462432
000170 21 9f 5d 3e 32 64 ee be 02 78 ca be 3a ad a6 be
       0.21642734 -0.46560818 -0.39544684 -0.32554036
000180 f0 91 04 3f f6 86 00 bd e9 80 32 bf 78 87 f1 be
       0.5178518 -0.03137871 -0.6972795 -0.47173667
000190 54 51 23 be ac 8f 02 3e cc 9d 3b be d4 7a 33 be
       -0.15948993 0.12750119 -0.18321913 -0.17527324
0001a0 ad 05 cf 3e 4b b3 cb bd 83 f1 90 3e f5 b3 ca bd
       0.40434018 -0.09946307 0.2830926 -0.09897605
0001b0 c0 db d5 be 90 2c cf 3e 38 c9 a7 3d ae f8 d6 be
       -0.41769218 0.40463686 0.08192676 -0.41986603
0001c0 f6 b4 e7 3e b8 3c b3 3d 22 8e 27 bf 30 b6 5b be
       0.4525525 0.087518156 -0.6545125 -0.21456218
0001d0 a2 b6 8a be d8 af 72 be ec a3 89 be 80 9a 8c bc
       -0.27092463 -0.23699892 -0.26882875 -0.017163515
0001e0 8e 81 8b be 20 f3 1a be 7c 9e d6 3e 34 64 10 3e
       -0.2724728 -0.15131807 0.4191779 0.14100724
0001f0 6f 5e 96 be c7 63 90 3e 78 11 79 3d 6a 5f c4 3e
       -0.29368922 0.28201124 0.060807675 0.38354045
000200 e0 c4 57 be 40 ef ef 3d e6 d3 c5 3e 00 cf 8b bd
       -0.21071196 0.11715555 0.38638228 -0.068265915
000210 5c 96 18 be 70 6a d6 3d 54 e3 4a be 10 e9 7d bd
       -0.14901108 0.1046952 -0.19813281 -0.061989844
000220 80 cb bf 3d d4 df 47 be a0 22 ca bd 84 43 b6 be
       0.093649864 -0.19518977 -0.098698854 -0.35598385
000230 d7 1b fe 3d d5 c3 4b 3e 53 c7 21 3f ea da 75 be
       0.12407654 0.19898923 0.6319477 -0.2400929
000240 aa 81 d1 3e 56 0c fd bc 26 9d f4 bd 1a 01 0a bf
       0.40919238 -0.030889671 -0.11944036 -0.5390793
000250 f8 ed 5d be 5b f5 fa 3e 49 a2 fb 3e b5 d1 ae 3e
       -0.21672809 0.49015316 0.4914725 0.3414437
000260 ef 38 86 3e 73 54 ac bc 39 d5 07 bf 76 04 fd 3e
       0.26215312 -0.021036362 -0.53059727 0.49417466
000270 0c 91 c2 be cc 24 45 be c4 f7 b5 3e 48 3f 95 bd
       -0.38001287 -0.19252318 0.35540593 -0.072874606
000280 e5 08 96 bd ba 34 10 bf 7a 24 c8 3e eb 80 a7 3e
       -0.07325915 -0.56330454 0.3909033 0.32715544
000290 ab 31 5b 3e 27 28 76 be 02 24 02 bd e7 0f f5 bd
       0.21405666 -0.24038754 -0.03177262 -0.11965924
0002a0 c7 11 ab 3e 99 11 9d bd c0 f7 81 bc 5c 3a 56 be
       0.33412 -0.07669372 -0.015865207 -0.209207
0002b0 80 a3 9a be 4e a5 fd 3e 9e 11 f8 be 40 0e b8 be
       -0.30202866 0.4954018 -0.4845094 -0.35948372
0002c0 ac a0 48 be 05 e7 9a be 9d 1a 21 3f 8f 29 ac 3e
       -0.19592541 -0.3025438 0.62931234 0.33625457
0002d0 ec 11 5f 3e fb 12 19 bd a8 df e7 3c 84 68 cb 3d
       0.2178418 -0.037371617 0.02830489 0.09932044
0002e0 f0 44 a7 bd 20 1b 1c 3d 60 46 d4 3d a0 e7 35 be
       -0.08167446 0.038111806 0.103649855 -0.17764139
0002f0 5e 78 9d bc 81 28 19 3e 73 5b 09 bf df 65 0b 3e
       -0.019222435 0.14956857 -0.53655165 0.1361308
000300 8f f3 ad 3e 1c 15 f9 bd d5 c3 0d be a0 53 25 3a
       0.33974883 -0.121622294 -0.13844235 0.00063067116
000310 c6 74 22 be 72 a7 9b 3d be bb 51 3e 3e b1 62 3e
       -0.15864858 0.07600297 0.20481774 0.22137925
000320 c9 89 69 3e e6 de c8 3e 36 48 1b be db 80 06 bf
       0.22806467 0.39232558 -0.15164265 -0.5254037
000330 d0 9d dc bd c0 c3 2e be 72 a6 bf be fc 7a 91 be
       -0.10772288 -0.1706686 -0.37431675 -0.28414142
000340 4a 58 b5 3e 6c 3b ef be c0 44 97 3e 70 ff f4 bd
       0.35418922 -0.46725023 0.2954464 -0.11962783
000350 2f 28 c4 3e eb 64 71 3e ca 68 3d 3f 67 84 f6 be
       0.38311908 0.23573653 0.7398802 -0.4814789
000360 af 5e 49 be 95 ac 32 3e b0 27 ea 3e 46 7a 38 3d
       -0.19665025 0.17448647 0.45733404 0.045038484
000370 38 f6 28 be 80 a2 9e bb a4 c4 e1 3e 08 f4 ac be
       -0.16500175 -0.004841149 0.44095337 -0.3377993
000380 90 33 98 be da ca 95 be 14 f3 e8 3e 38 77 41 be
       -0.2972684 -0.29256326 0.45497954 -0.18893135
000390 6d 61 b1 3c be 1b ca bc 8f ee 8f 3e 3f 45 de 3e
       0.021652902 -0.024671432 0.28111693 0.43412206
0003a0 51 b0 13 3e e7 aa e7 3e 5e 64 80 3e 37 74 9f 3e
       0.14422728 0.45247576 0.25076574 0.31143352
0003b0 76 78 c5 3e 2b 8e 70 be 83 47 28 3f 55 cf 8a be
       0.38568467 -0.23491733 0.6573412 -0.27111307
0003c0 0a c4 c6 3e 49 ca cf 3e 47 cd ac 3e 9d 0c a7 3e
       0.3882144 0.4058402 0.33750364 0.3262681
0003d0 24 8f bc be 18 a5 c1 3e 58 02 32 3e 80 46 bf 3c
       -0.36827958 0.3782127 0.17383707 0.023349047
0003e0 68 11 a5 bd 52 a7 92 be 30 22 c5 bd 40 cc 70 be
       -0.080599606 -0.2864328 -0.096256614 -0.23515415
0003f0 86 b8 f3 3e 78 17 b0 bd 58 4f ca be 69 e9 0d bf
       0.47601718 -0.08598226 -0.3951366 -0.5543428

network.0.bias f4 [64]
000000 bf 1a 16 3d 08 f4 02 be 29 b6 7f be 25 57 b8 be
       0.0366466 -0.12788403 -0.24971832 -0.36003986
000010 e0 9d 80 bd a8 44 76 be 24 1c a4 3e a0 a6 ea bd
       -0.06280112 -0.24049628 0.3205272 -0.114575624
000020 70 35 a1 be 09 50 ed 3d 22 66 eb 3e d4 0b 41 3e
       -0.31486082 0.11587531 0.4597636 0.18852168
000030 f8 a6 9e 3e 6a c0 a0 be 50 6b ac be d6 01 fc bb
       0.30986762 -0.313968 -0.33675623 -0.0076906485
000040 20 e1 00 3e 6a c8 7a 3d 00 9c 46 3c 06 d5 f9 3e
       0.12585878 0.061226286 0.012122154 0.48795336
000050 f7 ba bc be c0 9e d2 be fe dc ec bd 5f 0e ed 3e
       -0.36861393 -0.41136742 -0.115655884 0.46300027
000060 9d ed 4b 3d 80 a8 06 3e cf 48 ca be f6 25 ea 3e
       0.049787153 0.13150215 -0.39508674 0.45732087
000070 ea b4 b9 bc 8e 83 b8 3e 58 bf c2 3e d4 d8 59 be
       -0.022669274 0.36037868 0.3803661 -0.2127412
000080 c0 24 67 be d8 66 9f 3d 4c d2 7a be b7 c9 cb 3e
       -0.22572613 0.07783288 -0.24494284 0.39802334
000090 26 01 ba 3d 40 fc 71 3e 47 64 c6 be 96 8c c0 be
       0.0908225 0.23631382 -0.3874838 -0.3760726
0000a0 24 c0 d0 be 90 d4 36 3e 2f 61 30 bf 52 2f c7 3e
       -0.40771592 0.17854524 -0.6889829 0.3890329
0000b0 11 fc bb be 3b ef b7 3e 80 05 cf 3c f2 9c fd 3d
       -0.3671575 0.35924706 0.025271177 0.123834506
0000c0 71 95 9a 3d 31 12 a5 3e 67 30 a7 be d4 ae b4 be
       0.07548035 0.3224044 -0.32654116 -0.35289633
0000d0 e5 8b 65 3e 4b 73 c2 3e 35 45 84 be 78 85 dc 3d
       0.22416647 0.37978587 -0.2583405 0.10767645
0000e0 a0 21 73 3d 14 d8 e6 3d 50 0d be 3e dc a9 8c 3e
       0.05935824 0.112716824 0.37119532 0.27473342
0000f0 95 26 e0 3e 90 d4 50 3d 3c 59 96 be 5a aa 42 be
       0.43779436 0.050983965 -0.29364955 -0.19010296

network.2.weight f4 [64, 64]
000000 00 1f 03 3d 88 f6 b4 3d 0c 9c 93 3d c8 52 fc 3c
       0.032011986 0.088360846 0.07207498 0.030801192
000010 c2 6b 81 3d 20 c2 a9 3c a0 54 69 3c bc d8 d3 bd
       0.06319381 0.020722449 0.014241368 -0.10344073
000020 10 70 21 3d dc 2f 95 bd 28 25 b7 3d e2 a0 80 bd
       0.03941351 -0.07284519 0.08942634 -0.06280686
000030 00 48 e6 3c d0 0d 60 3c dc 55 5c bd 50 9c 3a bc
       0.028110504 0.013675168 -0.05379282 -0.011389807
000040 de a0 c1 bd 36 bb c4 bd d0 ba 73 3d 18 94 ea bd
       -0.09454511 -0.0960602 0.05950433 -0.11454028
000050 ba 16 82 bd ac 88 25 bd 4e cb 9d bd 04 83 b2 bd
       -0.06351991 -0.040413544 -0.07704793 -0.087163955
000060 54 30 15 bd c4 b8 53 bd 04 e5 da bd c6 3f 83 bd
       -0.036423042 -0.051689878 -0.106882125 -0.06408648
000070 a6 2a ee bd 92 54 a6 3d 22 d6 a3 bd c4 d5 41 3d
       -0.11629228 0.08121599 -0.07999827 0.047323003
000080 e6 70 cc bd a4 fe f8 3d 34 38 9e 3d 0e c0 93 bd
       -0.09982471 0.12157944 0.07725564 -0.07214366
000090 e8 bf 85 3c 98 0f 93 3d 0e a6 8b 3d ea da a0 bd
       0.01632686 0.07180709 0.06818782 -0.078542545
0000a0 ce 12 fc 3d 20 37 8d 3b 80 1d be 3b 94 f0 e2 bd
       0.12308274 0.00430955 0.0058018565 -0.11081043
0000b0 40 73 a8 bb 2a ee f3 bd f4 e8 cf bd 36 0f 81 3d
       -0.005140692 -0.119106606 -0.10151854 0.063017294
0000c0 54 30 61 3d ae b4 e4 bd 70 43 d4 bd 06 7d f4 3d
       0.05497773 -0.111672744 -0.10364425 0.11937909
0000d0 b0 9a 00 bc d8 76 b6 bc aa a9 fa bd 38 e3 14 bd
       -0.00784938 -0.022273466 -0.12239392 -0.036349505
0000e0 20 92 21 3d c8 da bf 3c 60 0f 58 3c 5c 1f 1c 3d
       0.039445996 0.023419753 0.013187259 0.038115844
0000f0 14 36 89 3d 82 3b c9 3d 34 63 84 3d 80 f0 1a 3c
       0.06699768 0.09825803 0.06464234 0.009456754
000100 08 3c a5 bd 30 6c 47 bc d0 76 81 3d d0 63 24 3d
       -0.08068091 -0.01217179 0.0632149 0.04013425
000110 08 19 46 3d 10 18 ce 3d 16 8e 9b bd d8 83 bd bc
       0.048363715 0.10063183 -0.0759546 -0.023134157
000120 80 f4 88 bd e0 13 80 3d 38 3e f5 bd 20 ac 29 3d
       -0.0668726 0.06253791 -0.11974758 0.041423917
000130 a0 8e 4b bc 98 b8 6e bd f8 86 49 3d 98 0c 9d bd
       -0.012424141 -0.05828151 0.04920098 -0.07668418
000140 2e 11 ea bd 24 2f 64 bd d0 67 8d 3c a4 9d 08 bd
       -0.11429058 -0.05570902 0.017261416 -0.033353463
000150 68 89 e6 bd 40 6b fb 3d e0 32 99 bd 94 84 5c bd
       -0.11256677 0.12276316 -0.07480407 -0.053837374
000160 70 d1 2c bc e8 db aa 3d 00 16 82 bb 34 99 4b bd
       -0.010547981 0.08342725 -0.0039699078 -0.049706653
000170 d0 14 79 bd f8 58 57 bd e4 1a e6 bd 40 b8 22 bc
       -0.060810864 -0.05257508 -0.11235598 -0.009931624
000180 44 94 8b 3d 3c 5c 44 bd 36 0c c4 3d a6 f7 84 3d
       0.06815389 -0.047939524 0.095726416 0.06492548
000190 68 29 16 3d 40 93 d8 bc 04 47 bb 3d 72 25 9f 3d
       0.03666058 -0.026437402 0.091444045 0.07770814
0001a0 64 5a 5e 3d c6 53 90 bd 60 95 4e bc 02 1c e1 bd
       0.054285422 -0.070472285 -0.012608856 -0.1099167
0001b0 b8 3b ee bd bc 74 3f 3d 44 eb 5f bd 40 41 24 3d
       -0.11632484 0.046742186 -0.054667726 0.04010129
0001c0 a0 af 1d 3c 18 de 35 bd 0a 83 ce bd 00 a2 18 3c
       0.009624392 -0.04440126 -0.100835875 0.009315968
0001d0 18 01 cb 3d 4a ee d5 bd 44 6c 35 3d 40 e0 12 3b
       0.09912318 -0.10445841 0.044292703 0.0022411495
0001e0 fe 43 91 bd cc 1f b1 bd f8 fb 8e 3c 16 fc a7 bd
       -0.070930466 -0.08648643 0.017454132 -0.082023785
0001f0 b0 8b c7 bd a0 49 6f 3d c8 ff aa bd c8 44 27 3d
       -0.0974344 0.058419824 -0.08349568 0.04083708
000200 2f 6e 0b 3d e8 d7 3d 3d 15 0c 92 3e 1c 37 bc bd
       0.034040626 0.046348482 0.28524843 -0.09190199
000210 c2 09 ca bd 55 e2 5b 3d 34 b2 e8 3b f4 fe 4a bd
       -0.098651424 0.053682644 0.0071013216 -0.04955955
000220 00 88 c5 38 9d 03 83 bd dc 34 6c 3d c0 a3 6f bd
       9.419024e-05 -0.063971736 0.057667598 -0.058505774
000230 fe a3 81 3d 64 cf 6f bd 4c 04 91 3d d7 fd 17 3d
       0.06330107 -0.058547392 0.07080898 0.037107315
000240 e8 aa 51 3d dc ef ab 3d 5c 99 6f bd 82 c4 b5 3d
       0.05118838 0.08395359 -0.058495864 0.088753715
000250 b5 4a 83 3d 68 1c 3a 3d 62 64 2b 3c 0e 41 a9 3d
       0.064107336 0.045437247 0.010460945 0.08264361
000260 ea d9 1f 3e d8 cb b7 bd 66 f4 9b bc 14 6b d0 bd
       0.15610471 -0.08974427 -0.019037437 -0.101766735
000270 09 ca cf bd b2 cd b3 bd 40 3d 30 3d 13 61 ae 3c
       -0.10145957 -0.08779468 0.043027163 0.021286523
000280 40 69 1f 3d d2 f2 f8 bd 18 4b 04 3d 64 81 ca 3d
       0.038918734 -0.12155689 0.032298177 0.098879606
000290 42 7a 2f bd 11 fb e4 3d 59 bb b8 bd 80 0c f8 bc
       -0.042841204 0.111806996 -0.09020109 -0.030279398
0002a0 e6 75 aa 3e e7 11 a6 bb 21 cc a4 bd 44 d0 fd 3d
       0.33293074 -0.005068052 -0.08046747 0.12393239
0002b0 cb 12 fe 3e 8f f7 dd 3d 90 c6 e2 bc 16 f6 f3 bd
       0.49623713 0.10838234 -0.027682573 -0.119121715
0002c0 87 8d d0 bc 30 ed 01 3e f1 d5 d9 3e 04 33 5c bd
       -0.02545811 0.12688136 0.42546037 -0.05375959
0002d0 ce a7 bf 3d cf f7 bc 3d bb c1 4e 3f c2 0d cb bd
       0.09358178 0.09226953 0.8076436 -0.099147335
0002e0 a0 77 b6 bc 01 0d ab 3b 63 b8 e1 3d a9 95 71 3d
       -0.022273839 0.005220056 0.11021497 0.058980618
0002f0 36 fd 9f bd a8 85 10 bd 94 2d d4 bd 2d a2 5f 3d
       -0.07811968 -0.035283715 -0.10360256 0.054598022
000300 aa 3e f8 3d fc a9 04 bd b0 9c 29 3c 74 a8 1e bd
       0.12121327 -0.032388672 0.010352299 -0.03873487
000310 80 1d 45 3d 9a ac eb 3d 76 91 df bd a8 00 de bd
       0.048123837 0.115075305 -0.10916416 -0.10839969
000320 94 7e 68 bd d4 68 3f 3d e4 db 90 bd 00 de c3 bb
       -0.05676134 0.04673083 -0.07073191 -0.005977392
000330 2c 05 be bd da 85 e6 bd 10 c1 39 bd 80 90 fc bb
       -0.0927833 -0.11255999 -0.045350134 -0.0077076554
000340 50 5a aa bd 00 c4 44 bd cc 0b b1 bd 02 d4 94 bd
       -0.08318007 -0.048038483 -0.08644828 -0.07267
000350 80 27 07 3c 4c 85 ce bd e8 34 2c 3d b8 c8 96 bc
       0.008249164 -0.10084018 0.042042643 -0.018406257
000360 20 f7 70 3c 50 32 40 3d 56 65 aa 3d c8 4c 73 bd
       0.014707357 0.04692298 0.083201095 -0.059399396
000370 38 c2 ec 3c 90 28 67 3c f8 33 ea bd d8 89 e5 bc
       0.028901204 0.014108792 -0.114356935 -0.02801983
000380 b0 d6 ee 3d 8c 4f 60 bd be 78 d2 bd 7a 0b bf bd
       0.11662042 -0.05476336 -0.10276936 -0.09328361
000390 98 05 31 3d bc 31 c7 bd b2 16 bb bd 00 c7 78 bb
       0.043218225 -0.09726283 -0.09135188 -0.003796041
0003a0 8c 19 8f 3d 04 c8 25 bd 0e 74 b6 bd 8c 3f 2b 3d
       0.069872946 -0.040473953 -0.089088544 0.04180865
0003b0 3c 95 f7 bd 5e a6 89 bd 0e 66 d5 bd 52 30 e3 3d
       -0.12089011 -0.06721185 -0.10419856 0.11093201
0003c0 3a 3c be bd 40 5e b9 3d 54 0c d7 3d 1c df 5f 3d
       -0.09288831 0.0905118 0.10500398 0.054656133
0003d0 88 b7 a6 3c de 05 bb bd 80 97 01 bd 8c a8 3a 3d
       0.020351186 -0.091319785 -0.031638622 0.045570895
0003e0 12 0e fb bd 48 1a 8d bd 8e 00 b7 3d 98 c5 d2 3c
       -0.12258543 -0.068897784 0.08935653 0.025728986
0003f0 b0 5d e7 bc 0c 69 93 3d 48 bc 88 bc 34 e1 f7 bd
       -0.028242916 0.071977705 -0.016691342 -0.12103501

network.2.bias f4 [64]
000000 10 b0 20 bd 24 5c 6f bd 01 f4 a1 3d 6a 81 9c bd
       -0.039230406 -0.05843748 0.07907868 -0.07641871
000010 33 5d 15 bd 60 c6 20 3d 12 e6 1a 3d 27 ab 18 3d
       -0.036465835 0.039251685 0.03781707 0.0372726
000020 63 3f d4 3d e8 06 7c bd bd 06 ed bc ca 83 09 be
       0.103636526 -0.061530024 -0.028933877 -0.1342918
000030 45 38 d0 bb 3e c8 a8 3d 03 b0 e1 3c 1e fd 01 be
       -0.006354364 0.08241318 0.02754975 -0.12694213
000040 4c 2e c6 3d 10 5c fa 3c 21 bd e0 bd 99 70 da bc
       0.09676799 0.030561477 -0.109735735 -0.026665019
000050 80 1e ac bb c0 5a 5c bc 9e 21 d4 3d bd 8e d7 bd
       -0.0052526593 -0.013449371 0.103579745 -0.10525272
000060 cc 6e cc bd dd d8 67 3d af 53 6f 3d eb 45 12 bc
       -0.0998207 0.0566033 0.058429416 -0.008927803
000070 50 13 46 ba de 47 f0 bd 10 31 51 bd 59 a2 0a be
       -0.00075559784 -0.117324576 -0.05107218 -0.13538493
000080 41 1b 53 3b d1 a0 03 be 3b 26 16 bd 2e 2a ef bd
       0.003221229 -0.12854315 -0.036657553 -0.11677967
000090 95 4f 51 3c 78 1e 4a 3d dc 82 f7 bd 04 6c 5b 3d
       0.0127753215 0.049345464 -0.12085506 0.05356981
0000a0 bf 82 2d 3d 45 2a 3d bd e7 ef 9f bd 98 b6 09 be
       0.042361017 -0.04618289 -0.078094296 -0.1344856
0000b0 f6 27 b5 bd d0 b9 de bd d4 05 2f bd 86 54 00 bd
       -0.088455126 -0.10875285 -0.042730168 -0.031330608
0000c0 82 93 04 be b1 ee 0e bd e8 cd db bd 9e d9 01 be
       -0.12946895 -0.034895603 -0.10732633 -0.1268067
0000d0 39 11 1f 3d 42 a5 a3 3d 71 53 1d bc 26 83 e6 bd
       0.038834784 0.07990505 -0.0096024135 -0.11255483
0000e0 90 1d c8 bd 3d d9 f5 3c 3a a6 a5 bd d8 fb ff bc
       -0.097712636 0.030010814 -0.08088346 -0.031248018
0000f0 e0 a7 2f 3d 00 7a c8 3c 12 d0 8d 3d 76 25 a7 3d
       0.042884707 0.024472237 0.06924452 0.08161442

network.4.weight f4 [1, 64]
000000 9c 4f d8 bd e4 3b 90 bd b1 85 a8 3d 5c a8 7d bd
       -0.10562059 -0.07042673 0.082286246 -0.061928138
000010 b2 2c 2e be a0 31 8b 3c 71 89 85 3d c2 55 18 bd
       -0.17009237 0.016991436 0.065203555 -0.03719116
000020 6d 6a 3f bd bc ab b1 3d 87 de 0e 3e 9e 38 ef 3d
       -0.046732355 0.08675334 0.13952075 0.11680721
000030 c0 a9 4e 3d 09 2e 24 be 36 d2 d7 be 3c e2 05 3e
       0.050454855 -0.16033186 -0.42152566 0.13074583
000040 2c 46 ec bd 98 4f 8a bd 5d 77 3c be 21 ab 23 bd
       -0.11536822 -0.067534626 -0.18404908 -0.039958123
000050 8c 24 1d bd e8 1f a4 3c 89 57 b8 3e d0 af 82 bd
       -0.038364932 0.020034745 0.36004284 -0.0638119
000060 8f dc cb bd 51 0c a4 3e ce eb fd 3d 92 b7 84 3d
       -0.099541776 0.32040647 0.12398492 0.06480326
000070 14 54 c5 3d dd 03 9d 3d f2 dd ae bd f5 3e 35 3d
       0.09635177 0.076667525 -0.085384265 0.044249494
000080 fd ab 13 bd ec 87 cb be aa a4 07 3e b0 1f 1f 3c
       -0.036052693 -0.39752138 0.13246408 0.009712145
000090 db 5e 5f 3e 5c 85 0e bd b8 b3 1e bd f4 56 94 bc
       0.21813528 -0.03479515 -0.038745612 -0.018107869
0000a0 5c db be bd c6 16 45 bd b7 7d f2 bd 6f b4 d8 3d
       -0.09319183 -0.04811742 -0.118403845 0.1058129
0000b0 97 dc 10 3e 68 60 f2 3c 7c f9 56 3d 43 b2 d0 bc
       0.14146648 0.029586986 0.05248402 -0.025475627
0000c0 1b 2c 54 bd eb 2c 60 3d 9a d9 ee bd 72 b2 e4 be
       -0.051799875 0.054730337 -0.11662598 -0.44667393
0000d0 86 78 da 3d ce 37 fc bd 93 13 8a bd 24 34 99 bd
       0.10667519 -0.123153314 -0.06742015 -0.07480648
0000e0 38 48 1a 3d 7e eb 6e be b3 9c bd 3d 2c e7 4e bd
       0.03766653 -0.2333202 0.09258404 -0.05051343
0000f0 0a d4 71 bd e0 ad 5c 3c d0 30 cd 3c c8 68 ef bd
       -0.059040107 0.013469189 0.02504769 -0.11689907
