training_service/models/job_b49a1ee9_model.pth (torch, 21401 bytes, 5 tensors)

network.0.weight f4 [64, 4]
00000000: 20d8 7dbe 34c7 2cbe 701c e7be 082a 1abe
00000010: 960d d1be 105f 4e3e 00d4 d13e 3827 96bd
00000020: 1579 a83d d843 75be e4a4 5bbe 5e31 813e
00000030: b3ff 63be 9c7b c83d 4498 003f a578 883e
00000040: cdf0 e03e ed11 9f3e f20b 9d3e e0c9 b6be
00000050: 1c41 1cbe ac0f 17be c012 0d3d d043 7fbd
00000060: e457 6dbe 9c7e debe 0654 e83e e025 58bd
00000070: 9c63 c33e 7051 9c3e a7fc f43e 23db 0e3e
00000080: 814e 8f3e fea1 5f3e 71d3 ee3e ac7a b6be
00000090: cabe 343e 238e 873d 43e7 d33e 39f8 ba3e
000000a0: d011 483d b7e0 a0be 5797 203e bb26 d73e
000000b0: 0856 d73e c8a6 6dbe d328 e03e cb8b 913c
000000c0: 1f57 123e e4fa a7bd ce19 a13e 1ae0 de3d
000000d0: d764 92be 94de 993e e861 aabd e97c b33e
000000e0: 3527 e63e 0b3f 00bc ae36 9c3d 0331 d7be
000000f0: 0147 e4be 7ea8 e43e f6f2 f0bd 7b78 3e3e
00000100: 0862 77be 9032 21bd 8047 623c 80a7 eebc
00000110: e5ad eb3e d547 933c f1bd 02be 7951 e13d
00000120: 128b 983e 0d3f dc3a 188d ef3e aee9 a13e
00000130: 58ef f63e 5f8b bebd 237e b63e 13db e8be
00000140: 0911 e33e c706 7c3d a491 f33e f970 453e
00000150: aee8 833e a22f 033f 1406 053e 1375 0f3b
00000160: 36a7 8f3e 7f57 263d 2497 fa3d 267b aa3e
00000170: 7cb3 4a3e 0d52 96be c9f4 f9be 12c3 043e
00000180: bc34 173e b094 fb3e c3ad ae3e 8056 b8be
00000190: 8273 b43d 9f37 dd3e 897f 133e 8d57 4c3e
000001a0: cea9 f0be 60a6 9c3d a4dc ed3e 10a6 d0be
000001b0: 0a7d 383e 7249 2cbd cd5e cf3e ca6b 0cbe
000001c0: 850d 50bc 99ad 4e3e 16ff 783e e0e9 1c3d
000001d0: 33a0 9c3d 2b68 60be 13b8 7cbe 81c5 063d
000001e0: 7c71 b6be 006e 773b 3a92 bdbe a0d5 323e
000001f0: 5cf5 ee3e 42d5 943d 4b2c f93e a62c ca3d
00000200: 2258 053e f42f fb3e 72a1 9cbe ea36 ad3e
00000210: 816f 0abe 819b 493e 2a33 ea3e 4d96 023e
00000220: ee1b 963e 8c55 d13e a7dd 89be a922 f33e
00000230: 4d3c 743e d87d 9e3e 80fe babe 4659 b73e
00000240: 3d50 6e3e a93e 2ebe d0dc fe3e f8fa 8cbe
00000250: fca2 c4be b4ef fd3e 4e93 143f e6ff 9e3e
00000260: 7a0b d5be 308c d0be e046 fcbc 1c4f 6cbe
00000270: 50ac ff3d 1c9e 60be f8cf 90be 36e0 a9be
00000280: 7818 3cbe 6440 d4be 68e4 aabd 5091 17be
00000290: 304a 02be 80e7 0d3e a0d1 e0bd 0026 cebb
000002a0: e94b 563d b314 1abd a7c1 ebbe d33f 7e3e
000002b0: aeff 8b3d 624d d8be 4bc6 c5be 4e68 f73e
000002c0: d522 b23e f776 d43e 9835 d63c f023 bbbe
000002d0: 8862 913e 03a2 9d3d 4c2d 42be 61ea 2e3e
000002e0: 90c6 3e3d 8ec9 86be b8d1 e2be 7ceb 67be
000002f0: b538 a93e 7286 ea3e 17a8 ec3c df1a c7be
00000300: 90f8 d13d 7ed3 ddbe 3a04 c13e d4a3 b5be
00000310: d693 ebbe 488d 0f3e 6cb6 453e e694 a9be
00000320: 7ab9 fbbe 7c0a 78be e424 edbe 28f2 a43e
00000330: e159 4fbd 1328 a9be bcf4 cc3e 04f7 ad3e
00000340: e153 b23d e1db 5f3e 1dac f8bd 0574 a1bd
00000350: fc2b 79be 4819 2e3e 6680 d53e 4c01 61be
00000360: fc33 fcbe dec9 493e 3923 9cbe 3692 ad3e
00000370: f61c 4c3d aa1a be3e 609d aebe 735c c03e
00000380: fc63 99bc 9e9d b53e 2728 e83e 1433 32be
00000390: 71f2 b3be ee8c cd3e 548f 8dbe 9da2 a23e
000003a0: 28c0 22be 5864 12be 8081 cbbe 24b8 ddbe
000003b0: f259 b5be 061e 8f3e 896d 893e 9b4b ed3e
000003c0: 2b72 953e 1577 b73e b7ab 22be 1883 d23e
000003d0: 50ab 90bd 382a 12be fc9a 323e 18eb 0dbe
000003e0: 48d0 d5bd a013 de3e 02d7 83be 10ae 91be
000003f0: a5fd 58be 8f96 e73e e598 933e bba0 2cbd
-0.24789476 -0.16872865 -0.45138884 -0.15055096 -0.40830678 0.20153451 0.40982056 -0.07331699
0.082262196 -0.23951662 -0.2144962 0.25232977 -0.2226551 0.097892016 0.5023234 0.26654544
0.43933716 0.31068364 0.30673176 -0.35700893 -0.15259212 -0.14752072 0.03444171 -0.06232053
-0.23178059 -0.4345597 0.45376605 -0.052770495 0.38161933 0.30530882 0.47849008 0.13950782
0.2798958 0.21839139 0.46645692 -0.35640466 0.17650905 0.06618907 0.41387376 0.36517504
0.048845112 -0.31421444 0.15682732 0.42021737 0.42057824 -0.23208153 0.43781146 0.017766854
0.14291047 -0.082021505 0.31465 0.10882588 -0.2859256 0.30052626 -0.083194554 0.35056236
0.44951788 -0.007827531 0.07627617 -0.4202958 -0.44585422 0.446598 -0.11765091 0.18600647
-0.2415849 -0.03935486 0.013810992 -0.029132605 0.46031108 0.017978588 -0.1276777 0.11001868
0.29793602 0.0016803459 0.46787333 0.31623596 0.4822948 -0.09303927 0.3564311 -0.4547964
0.44348934 0.0615299 0.47572052 0.19281377 0.25763458 0.51244557 0.129906 0.002188985
0.2805726 0.040610787 0.12235859 0.3329708 0.1979503 -0.29359475 -0.4881957 0.12965038
0.1476621 0.49136877 0.34116945 -0.36003494 0.08811094 0.43206498 0.1440412 0.19955273
-0.4700455 0.07648921 0.46457398 -0.40751696 0.18016449 -0.04206223 0.40502015 -0.13712993
-0.012698536 0.2018341 0.24316058 0.038308978 0.07647743 -0.21914737 -0.24679594 0.0329032
-0.35633457 0.0037754774 -0.37025625 0.17464304 0.4667157 0.07267238 0.48666605 0.09871797
0.13021901 0.49060023 -0.30591923 0.3383096 -0.13519098 0.19688226 0.4574216 0.12752648
0.29318184 0.4088558 -0.2692692 0.4748738 0.23851128 0.30955386 -0.36522293 0.35810298
0.23272796 -0.1701609 0.49777842 -0.27535224 -0.38405597 0.4959694 0.5803727 0.3105461
-0.41610318 -0.40731955 -0.030795515 -0.23077053 0.12484038 -0.21935314 -0.28283668 -0.33178872
-0.18368709 -0.41455376 -0.08344346 -0.14801526 -0.12723613 0.13857841 -0.10977483 -0.006291151
0.052318487 -0.037617397 -0.46046183 0.24829035 0.068358764 -0.42246538 -0.38627848 0.48321766
0.347922 0.41497013 0.026148602 -0.36550856 0.28395486 0.07696917 -0.18962592 0.17081596
0.046576083 -0.2632565 -0.44300628 -0.22648424 0.33051077 0.458057 0.028888745 -0.3888769
0.10252488 -0.43325418 0.37698537 -0.35476553 -0.46011227 0.14018738 0.1930787 -0.33121413
-0.49164945 -0.2422275 -0.46317208 0.32216 -0.050622825 -0.33038387 0.40030468 0.3397752
0.08707405 0.21861221 -0.12142203 -0.07883457 -0.24333185 0.17001832 0.41699523 -0.21973151
-0.4925841 0.19705912 -0.30495623 0.33900613 0.049832307 0.37129718 -0.34104443 0.37570533
-0.018724434 0.35471815 0.45343134 -0.17402297 -0.35145906 0.40146583 -0.27648413 0.3176469
-0.15893614 -0.1429609 -0.39747238 -0.4330455 -0.35420185 0.27952594 0.2684138 0.46346745
0.29188666 0.3583304 -0.15885817 0.41115642 -0.07063925 -0.14273918 0.17441934 -0.13859212
-0.10440117 0.43374348 -0.25749975 -0.28453112 -0.21190508 0.45232055 0.28827587 -0.042145472

network.0.bias f4 [64]
00000000: d0b9 edbd ba86 eb3e 0afd 70be 61d6 d7be
00000010: 3405 e2be 2c86 1d3e 506d c4be cfc6 c43e
00000020: 4534 d1be bff0 a93e 2e69 173e d7f7 ec3e
00000030: 1481 b63e 0fb8 eb3e 2d36 fdbd c662 263e
00000040: 4818 f83d 3ad8 9bba f444 353e 6e91 cdbe
00000050: 5df2 82bd 91c5 62be 27f2 c2be d704 713e
00000060: 2566 013d bdef 12be b875 2e3e 9c5d 2a3e
00000070: b10e 353e 0875 98be fede ffbe 2d9c 183e
00000080: 55d6 b0be 92fa 32be 93be c5be f6f3 5c3e
00000090: a107 aabe 7fe6 5dbe 3428 98be c089 913e
000000a0: c072 483e e011 603e 7fc5 3bbd 6c91 afbe
000000b0: 115b e3be 5269 6fbe 94c9 be3e 6db2 ac3e
000000c0: d430 bfbe fa87 a33e 9c14 21be ada1 393b
000000d0: 9d7c 6e3d 9c8d 86be 0a0e 06be c883 6abe
000000e0: a805 a13e bd9f 5b3c 100f ba3d 8949 f6bd
000000f0: be14 58be 4ede e7be 4467 ccbe fee8 eabc
-0.116077065 0.46001226 -0.23534027 -0.42155746 -0.44144595 0.15383214 -0.3836465 0.3843293
-0.4086019 0.33191487 0.14786217 0.46282837 0.35645354 0.46038863 -0.12363849 0.16248617
0.12114006 -0.0011890002 0.17702085 -0.40150017 -0.063938834 -0.22145678 -0.38075373 0.23537003
0.031591553 -0.14349265 0.17037094 0.16637272 0.17681386 -0.29776788 -0.49974817 0.14903326
-0.34538522 -0.17478397 -0.3862196 0.21577439 -0.33208945 -0.21669959 -0.29718173 0.28425407
0.19575024 0.21881819 -0.045842644 -0.34290636 -0.44405416 -0.2338002 0.37263167 0.33729878
-0.3734194 0.3193968 -0.15730518 0.0028325126 0.05822431 -0.26279914 -0.13091293 -0.22901833
0.31449628 0.013404784 0.09084904 -0.120257445 -0.21101663 -0.45286793 -0.39922535 -0.028675552

network.2.weight f4 [64, 64]
00000000: 0c7d 063d e0da 033d c807 583c d371 223d
00000010: c725 803d a01f eebc 0028 1c39 0f2a 61bd
00000020: 2d0a 72bd f77c 70bd a01f 293d 394f b4bd
00000030: 8408 7f3d bd5f e33d 6223 c53d 47a1 df3d
00000040: e883 bf3c c751 2dbd dd2d c73d 9ea4 d9bd
00000050: e94c 9dbd 2a19 773d a46e 8cbd 54a3 053d
00000060: d012 443b 6995 a23d 88dd c23c 784b 8fbd
00000070: dfe9 b8bd a8e2 8fbc 404a 8ebb 93bd f1bd
00000080: eb9a ab3d cf27 22bd 8176 d0bd 1148 f9bc
00000090: ccfc 2dbd ff8e 46bd fcf0 8c3d 90cd 5f3c
000000a0: 721b 95bd 98f1 da3d 769a 95bb 5836 f4bb
000000b0: 81d9 cc3d 6eb8 8cbd 5eb9 803d f717 68bd
000000c0: f4fd 933d c0bd 323d 2aac c9bd 8595 083d
000000d0: efea d23c f68f bb3d 90c0 cf3d a9ac a1bd
000000e0: f83d 153c e15c f7bc a66c f83d 650a ed3d
000000f0: b334 c13d 8081 b83d 0cda 4dbd 3698 f83c
00000100: 18e6 ad3d f4c7 a73d 2682 9ebd ac51 923d
00000110: d0fa c93d 326f f63d 5819 b63c d159 9fbd
00000120: 9cca 543d 352c f43d 5e3c 11bd 8c25 7f3d
00000130: 1f3b 33bd df06 083e c06f 8ebd 28f1 0c3e
00000140: a07f bbbd fcdb 1b3d 6949 ddbc fdbb c83c
00000150: 52e0 1bbc 3c62 6dbd 9c69 9e3c 42c9 d63d
00000160: b525 3a3c bcc6 96bd 840a 85bd f9d1 9c3d
00000170: 1a5f acbc fbd7 8d3d 9885 26bd 1cbe 783b
00000180: c067 9b3c 951a 9dbd c028 e3bd a902 843c
00000190: 6964 223d 5276 38bd 9e09 9abd 4cce 843d
000001a0: 082b 273d 40fa 8d3b a203 803d 43be ea3d
000001b0: fff0 0dbd 6eae 1c3d 18a2 a3bd 1c84 a63d
000001c0: a4cf bc3d 4e42 f43d 94c3 09bd 7e74 cc3d
000001d0: 6a23 fabc dcf8 3ebd c671 e0bb 600b 8c3d
000001e0: ffb2 71bc dd89 0cbc f89e b5bc 4cc8 febc
000001f0: e4cf 0a3e c450 24bd 3ecb ad3d 2127 86bc
00000200: e469 06bd e007 12bd 5805 9dbd 5373 913d
00000210: 2e84 963c 86ac e3bd de4e dfbd 86a2 f13d
00000220: 1177 84bc 2ac9 083e 631b 883d 21bb d13d
00000230: dacf dd3d 0ed6 a83b 6a25 2d3b 81fb 1d3e
00000240: 5e5f fe3d 9eab b63c 73fe a8bd 1a34 5f3d
00000250: a3c9 cc3d 1fb0 1ebd 37c2 a23d bb13 bf3d
00000260: 88c2 0a3d 0e91 b33c 90f6 d8bc df1b 903c
00000270: 1752 b43d b85d a93d 203d da3d 86f8 d63d
00000280: f69c 9abc 480f 47bd 153e 873d 3481 50bd
00000290: 6c27 6cbd 3a2b 4a3d 2ad7 f0bd 80b6 cebb
000002a0: 8c3d bb3d 282f d9bc b4e1 c0bd 580a 3d3d
000002b0: 0fb7 86bd b839 58bd b07a 0c3c caa3 c2bd
000002c0: 82cb bc3d a0f2 e9bd ba97 f8bd 050c dfbd
000002d0: b12c dc3d d6d5 b0bd 85b6 c3bd a43f f63d
000002e0: 1dc9 82bc db6b 153d e042 0cbc 15a9 ee3d
000002f0: ce57 003d 6ca2 3f3d 7eb8 bcbd 54ca a739
00000300: 8459 523d 3442 19bd 1013 92bc 3006 e33c
00000310: 1ced 88bd 208a e3bc 3c3c efbd e025 6c3d
00000320: a4ee 4abd b8ab ca3d 2a1d 893d 14d9 b8bd
00000330: 8806 85bc 6849 a33d 48ab bf3c 00c2 dc39
00000340: 92cb e7bd b06a 863c 80be 053d 0022 75ba
00000350: 1609 bbbd c80f 333d 70c0 e7bd 441d d2bd
00000360: 1897 93bd c8d6 c4bd 8e5e 953d e08b 83bb
00000370: a279 e4bd 9087 123c 8c30 753d 1e88 cc3d
00000380: b864 043d 0030 d93d c8fe dc3c 4af9 b1bd
00000390: 70e0 1c3d e23b 963d 34a5 b23d b2c4 9abd
000003a0: a006 b33c 484a ec3d 9c9f a9bd ec1d b4bd
000003b0: 88fd 6c3d 965c d9bd 4084 a43c 60c8 3fbd
000003c0: f8f6 05bd 004c 36b9 f0a0 683c d4a8 c7bd
000003d0: b0c2 6d3d 9080 02bc e013 5b3c 1cde 3ebd
000003e0: 00cf a73a 9055 c0bd 305b fcbc 58c9 fd3d
000003f0: d097 d63c 28bb 93bc 44e0 9cbd 1ea4 ee3d
0.032834098 0.032191157 0.013185449 0.039659332 0.062572055 -0.029067814 0.0001489222 -0.05497175
-0.059091736 -0.058712926 0.041289926 -0.08804173 0.06226398 0.11102245 0.09625889 0.10919433
0.023378327 -0.042314317 0.097255446 -0.10627101 -0.07680685 0.060326733 -0.068570405 0.032626465
0.002991844 0.07938654 0.023787275 -0.069968164 -0.09028982 -0.017564133 -0.0043423474 -0.118037365
0.08379158 -0.039588746 -0.10178853 -0.030429872 -0.042477414 -0.048476215 0.068819016 0.01365985
-0.072806254 0.106906116 -0.0045655323 -0.0074527673 0.10002423 -0.06871115 0.06285356 -0.05666348
0.07226172 0.04363799 -0.09847291 0.033345718 0.02574679 0.09158318 0.1014415 -0.078942604
0.009109013 -0.030195655 0.12130098 0.11574248 0.0943388 0.09009075 -0.050256774 0.030346017
0.084911525 0.08192435 -0.077396676 0.07144484 0.09862292 0.120329276 0.022228882 -0.07780803
0.051951036 0.11922494 -0.03545796 0.062291667 -0.043757554 0.13283871 -0.06954908 0.13763869
-0.09155202 0.03805159 -0.027012544 0.024503702 -0.009513931 -0.05795501 0.019337468 0.10487606
0.011361529 -0.07362124 -0.06496146 0.076572366 -0.021041442 0.06925961 -0.04065475 0.003795511
0.01897037 -0.07671086 -0.11091757 0.01611455 0.03964654 -0.045034714 -0.075213656 0.064846605
0.040812522 0.0043328106 0.06250693 0.11462071 -0.03465366 0.038252287 -0.07989901 0.081306666
0.09219292 0.11926709 -0.033633783 0.099831566 -0.030534465 -0.04662405 -0.0068495004 0.06838107
-0.014752149 -0.008577791 -0.022170529 -0.031101368 0.13555866 -0.040116087 0.08486031 -0.01637608
-0.03281583 -0.03565204 -0.07667035 0.071020745 0.018373575 -0.111168906 -0.109037146 0.11798577
-0.016170057 0.13357988 0.066458486 0.1024077 0.1083066 0.0051524704 0.0026420006 0.15427972
0.124205336 0.02229863 -0.08251657 0.054493047 0.09999397 -0.03874218 0.079472 0.09329935
0.033876926 0.021919753 -0.026484758 0.017591415 0.0880472 0.082698286 0.1065619 0.10496621
-0.018873673 -0.048598558 0.06603638 -0.050904468 -0.057654783 0.04935763 -0.11759789 -0.006308377
0.091425985 -0.026511744 -0.094180495 0.046152443 -0.065778844 -0.05278942 0.008574173 -0.095038965
0.092185035 -0.1142323 -0.121383145 -0.108909644 0.10750712 -0.08634536 -0.09556297 0.12023857
-0.015965039 0.036479812 -0.008560866 0.116533436 0.031333737 0.046785757 -0.092148766 0.00032003468
0.0513549 -0.03741665 -0.017831355 0.027712911 -0.0668585 -0.027775824 -0.11681411 0.057653308
-0.04954399 0.09896034 0.06695016 -0.09025779 -0.016238466 0.079729855 0.023397103 0.0004210621
-0.11318125 0.016408294 0.032652378 -0.00093510747 -0.091325924 0.043716222 -0.113160014 -0.10259488
-0.07206553 -0.09611279 0.072934255 -0.004014477 -0.11156012 0.008943453 0.05986075 0.099869
0.032322615 0.106048584 0.026976958 -0.08690126 0.038299978 0.073356405 0.08722916 -0.07557048
0.021853745 0.115376055 -0.08282396 -0.0879477 0.057858974 -0.106133625 0.020082593 -0.046821952
-0.03270623 -0.00017385185 0.014198527 -0.09748998 0.058046997 -0.007965222 0.013371438 -0.04659854
0.001280278 -0.0939132 -0.0308052 0.12391919 0.026195437 -0.018033579 -0.07659963 0.116523966

network.2.bias f4 [64]
00000000: e21a cfbd 21bd 103e 49d5 04bd f41d ecbd
00000010: d8ab b6bd e796 adbd b62d 9f3c 121b 143b
00000020: f6fb 99bd 2c05 a13d c00e 6fbd f8c4 83bd
00000030: 70d0 313c 5464 be3d be83 793d 705b 9a3d
00000040: 433c 8e3d e0e9 39bd 648d 293d b8da afbd
00000050: 7d8c 7c3c 8dc3 e63d fea3 9e3d bbc7 53bd
00000060: 466b ff3a 180b f83c e982 13bb 0189 aebd
00000070: a01b 7e3c e3fd 04bd 5034 cf3d 96ed f23d
00000080: 54ef 81bd f9ef fc3d 740b 9d3d fabc d13c
00000090: 613c a73c a06c f13b fb0d 8b3d 6307 cebd
000000a0: 8a44 79bd 3419 9a3d fb9d bf3d e180 b3bc
000000b0: d429 4e3d c03b 553c ca7f 8e3d 7eb1 9f3d
000000c0: fe5b d5bd 7a4c e33d a665 ea3d 305a 25bc
000000d0: 5ce1 e63d de1a f83d 75ef 333d ae8a e53d
000000e0: bd5a 403d 1cf0 cbbc ef79 063e c448 60bd
000000f0: 1a43 d33d 436d 04be 4bee 51bc 0ec4 ebbd
-0.10112549 0.14134647 -0.032429967 -0.115291506 -0.08919495 -0.08476048 0.019430976 0.0022599143
-0.07518761 0.078623146 -0.058363676 -0.06434053 0.010852918 0.0929648 0.060916655 0.075369716
0.06945088 -0.045389056 0.041394606 -0.08586639 0.015414354 0.11267767 0.07746123 -0.05170415
0.0019486926 0.030278727 -0.0022508448 -0.08522225 0.015509516 -0.032468688 0.101174 0.11861722
-0.06344476 0.12350459 0.076682 0.025602806 0.020414533 0.0073676854 0.06789776 -0.10060003
-0.06085638 0.07524338 0.09356304 -0.02191204 0.05033286 0.013014734 0.069579676 0.07797526
-0.10417937 0.11098571 0.11445169 -0.010092303 0.11273453 0.121144995 0.043929536 0.11208092
0.046961535 -0.024894767 0.13132451 -0.054756895 0.10315533 -0.12932305 -0.012813161 -0.11512004

network.4.weight f4 [1, 64]
00000000: 2c71 a1bd 3750 763d fdb4 a53d e056 27bc
00000010: b037 93bd 206e 8e3d 4e8a 67bd dfe9 dcbd
00000020: d661 f93d 6e73 b93d 2819 c33c 1465 cebb
00000030: 7ec5 82bd 0e15 bb3d 9abb 63bd 24f9 6e3d
00000040: 257a d2bd c093 70bc d074 74bc a0ef 4cbd
00000050: 1633 013e 12dd c93d 25da 09bd 78a8 a1bd
00000060: 0f71 acbd 80a8 a6bb f04a 213d 584e 2cbd
00000070: 10d7 98bd af5b d13d 5c00 a9bd 1649 103e
00000080: 4a1e 8cbd 672c ff3d f38c 8e3d a578 49bd
00000090: fa38 0e3d 5c89 e2bd 98f8 e6bc 956d c0bd
000000a0: aa7c 5abc 583f c8bc 2f7b 8c3d 6afd 63bc
000000b0: 5816 b33c 70bb 8ebc 0fbe c5bc 058d 143d
000000c0: eb28 013e 86c5 6a3d 0393 923d 283f 633d
000000d0: 80eb f23b 7796 7f3d 6c80 4dbc d61d d6bd
000000e0: d8d2 a6bd ccd8 9d3d 50c6 833d 98ed 9c3c
000000f0: fd2a 7fba b0c0 e6bc d003 053d 5ad7 1a3b
-0.07882914 0.060135093 0.080911614 -0.010213584 -0.07188356 0.069545984 -0.056528382 -0.10786795
0.12176864 0.090552196 0.023815706 -0.0062986705 -0.06385325 0.09134875 -0.055598833 0.058343068
-0.102772035 -0.014683664 -0.014920428 -0.05003321 0.12617144 0.09856619 -0.033655304 -0.07893461
-0.08420002 -0.0050860047 0.039378107 -0.042066902 -0.07462895 0.102225654 -0.08252022 0.1409038
-0.06841715 0.12459641 0.06960478 -0.04918732 0.034722306 -0.110613555 -0.02819471 -0.09395901
-0.013335386 -0.024444267 0.06859433 -0.013915399 0.02186124 -0.017423362 -0.024138479 0.0362673
0.12613265 0.05731728 0.071569465 0.055480152 0.0074133277 0.062399354 -0.012542825 -0.104549095
-0.08145684 0.07707366 0.064343095 0.019156262 -0.0009733884 -0.028168052 0.03247434 0.0023626895
