training_service/models/job_c3b6e731_model.pth (torch, 21465 bytes, 5 tensors)

network.0.weight f4 [64, 4]
0	0x3eb3cbb3	0.35116348
1	0xbe24879d	-0.16067357
2	0x3e753467	0.23945771
3	0xbf06321e	-0.5242022
4	0x3e54e156	0.20789084
5	0x3ef29390	0.47378206
6	0x3e39bad5	0.18137677
7	0xbe831f5e	-0.2560987
8	0xbea00d0e	-0.3125996
9	0xbe9def26	-0.30846518
10	0x3ef27120	0.47351933
11	0x3e8cdcec	0.275123
12	0xba45b530	-0.00075419527
13	0x3ec09455	0.37613168
14	0x3ef93d19	0.48679426
15	0x3ea5a281	0.32350543
16	0xbcac9b19	-0.02107005
17	0x3d438bf7	0.047740903
18	0xbeb9b4d9	-0.36270788
19	0x3eb3ba7b	0.3510321
20	0xbe97e000	-0.29663086
21	0x3e6dc562	0.23219827
22	0x3f000f3c	0.50023246
23	0x3e9bc281	0.30421832
24	0xbee92cea	-0.4554208
25	0xbebfbac4	-0.37447178
26	0xbca91040	-0.020637631
27	0x3ca18840	0.01971829
28	0x3e0e3b8b	0.13889901
29	0xbe67b99c	-0.22629398
30	0x3eb7f061	0.35925582
31	0x3ee3b5be	0.44474596
32	0xbed3a9f4	-0.413406
33	0xbe86575c	-0.26238525
34	0xbe3d2740	-0.18472004
35	0x3e683c40	0.22679234
36	0xb9db1d83	-0.00041792923
37	0xbd00879c	-0.031379327
38	0xbeed0bb8	-0.46298003
39	0x3f032304	0.51225305
40	0xbeb1b1f4	-0.3470608
41	0xbec0af80	-0.37633896
42	0xbde366f0	-0.11103618
43	0xbe53a144	-0.20666987
44	0xbe5d6d78	-0.2162379
45	0x3dda0255	0.10644976
46	0x3f035c5c	0.51312804
47	0x3e790741	0.24319173
48	0x3eabe5e6	0.33573836
49	0x3e30779c	0.17233127
50	0xbf016322	-0.5054189
51	0x3e4934ec	0.19649094
52	0x3e6f3fec	0.23364228
53	0xbe278047	-0.16357528
54	0xbea9575c	-0.33074462
55	0x3d0f5839	0.034996245
56	0x3df12c78	0.1177606
57	0xbf109e45	-0.564915
58	0xbe4b5c9f	-0.19859551
59	0x3ef5060b	0.47856173
60	0x3e74ac87	0.23893939
61	0x3e38cab8	0.18046081
62	0x3e27f940	0.16403675
63	0x3ee20313	0.4414297
64	0xbef6b78c	-0.4818691
65	0x3ebced20	0.36899662
66	0x3cbf9d00	0.023390293
67	0xbe6855f0	-0.22689033
68	0x3d1c0c77	0.038097825
69	0x3e1adbd6	0.15122923
70	0x3eb4e064	0.35327446
71	0x3e0aa240	0.13538456
72	0x3d3066a0	0.04306662
73	0xbd22caa0	-0.03974402
74	0xbec7b9aa	-0.39008838
75	0xbe64c228	-0.2233969
76	0xbe9cfd00	-0.30661774
77	0xbddfb840	-0.10923815
78	0xbe0a4f50	-0.13506818
79	0xbb3f7b00	-0.00292176
80	0xbe4b23bd	-0.19837852
81	0xbde0901e	-0.10964988
82	0xbedf474d	-0.43609086
83	0x3ece22e1	0.40260985
84	0x3debb1d5	0.11508528
85	0x3e26187d	0.16220279
86	0xbe69fde2	-0.22850755
87	0xbd527865	-0.05138435
88	0xbee2c9c1	-0.4429455
89	0xbd9dfdae	-0.07714401
90	0x3f757720	0.95884895
91	0x3e9ebbe0	0.31002712
92	0x3e2b0cf6	0.16704163
93	0xbea50bba	-0.3223551
94	0xbe8778b9	-0.26459292
95	0xbe8a0a15	-0.26960817
96	0x3ee8124e	0.45326465
97	0x3e49126f	0.19635938
98	0xbeec0adf	-0.46102044
99	0x3e49d5a0	0.19710398
100	0xbeef1974	-0.46699107
101	0xbee874c8	-0.45401597
102	0x3effb9b6	0.49946374
103	0xbe158954	-0.14603168
104	0xbe650608	-0.22365582
105	0xbe55938c	-0.20857066
106	0xbe3ff9bc	-0.1874761
107	0x3de231d8	0.11044663
108	0x3e7bc7eb	0.24587981
109	0xbe480f43	-0.19537072
110	0x3f2b9362	0.67021763
111	0xbe98fde1	-0.29881194
112	0xbd06e141	-0.032929663
113	0x3d25f96c	0.04052107
114	0x3eca20b0	0.39478064
115	0x3dc88988	0.09791857
116	0xbed4914e	-0.4151711
117	0xbea0a3f8	-0.31375098
118	0x3d677480	0.056507587
119	0x3ea6958c	0.3253597
120	0xbee3b448	-0.4447348
121	0xbefe628c	-0.4968456
122	0xbe405d1c	-0.18785518
123	0xbe9547e4	-0.2915641
124	0x3df10afb	0.117696725
125	0x3ebc22d3	0.3674532
126	0x3cb41e53	0.021987116
127	0xbe87161a	-0.2638405
128	0x3e7e591f	0.24838684
129	0xbdc759e3	-0.097339414
130	0x3e4d654e	0.20058176
131	0xbe767aba	-0.24070254
132	0x3eacdd3d	0.3376254
133	0xbef92b11	-0.4866567
134	0xbecb024e	-0.39650196
135	0xbd3bc46d	-0.045841623
136	0x3ea83bc0	0.32858086
137	0xbec8ddda	-0.3923176
138	0xbe41f623	-0.1894155
139	0x3eb8bb57	0.3608043
140	0x3e956c85	0.29184356
141	0xbd91d837	-0.07121318
142	0x3e88cd2f	0.26719043
143	0xbd8bb6c1	-0.06821967
144	0xbec1e268	-0.37868047
145	0x3e18ab94	0.14909202
146	0x3e9dd4be	0.30826372
147	0xbd8da6e0	-0.069165945
148	0x3dc9eeb5	0.09859983
149	0x3ebf4f14	0.3736502
150	0x3eab7692	0.334889
151	0x3deb92f4	0.115026385
152	0x3eaeffdd	0.34179583
153	0x3ef521fb	0.47877488
154	0xbcc4e003	-0.024032598
155	0xbef6ca47	-0.482012
156	0xbdb861d7	-0.090030365
157	0x3eb0bb6d	0.34517995
158	0x3b7c2f03	0.003848017
159	0x3e870b48	0.26375794
160	0xbdb74391	-0.08948434
161	0x3dc4fcb0	0.09618509
162	0x3e8ba0d1	0.2727113
163	0x3e6f68ce	0.23379824
164	0xbef132dc	-0.47109115
165	0x3e5a2164	0.213018
166	0x3ef9f0c4	0.48816502
167	0xbe6d45d8	-0.23171175
168	0x3e577a96	0.21042857
169	0x3edeb0c4	0.43494236
170	0xbf16c9d3	-0.5890171
171	0xbee17027	-0.44030878
172	0x3e6b312f	0.22967981
173	0xbe97e521	-0.29667
174	0xbd7b9979	-0.06142566
175	0xbbff4275	-0.0077899047
176	0x3e3b724a	0.18305317
177	0xbe46035e	-0.19337222
178	0xbc1af492	-0.009457724
179	0x3ea220d9	0.31665686
180	0x3e6b9330	0.23005366
181	0xbdaf0f09	-0.085477896
182	0x3eba6c84	0.36410916
183	0xbe6c8d79	-0.23100843
184	0x3c638bb6	0.01388829
185	0xbda267e9	-0.079299755
186	0x3ed790bc	0.4210261
187	0x3eebfc1e	0.46090788
188	0xbe7e782e	-0.24850532
189	0x3df17b1b	0.11791059
190	0x3f16a818	0.5885024
191	0x3e8e9e61	0.2785521
192	0x3e766654	0.24062473
193	0xbefe901a	-0.49719316
194	0xbebd41db	-0.36964306
195	0xbeb93341	-0.36171916
196	0xbe26fd44	-0.1630755
197	0xbce8d520	-0.028421938
198	0xbe9932a6	-0.29921454
199	0xbe918218	-0.28419566
200	0xbecf8bc3	-0.40536317
201	0x3dcfdfa3	0.10150077
202	0xbf39590f	-0.7240152
203	0x3f125115	0.5715497
204	0x3dde2e65	0.10848693
205	0xbeeb07b1	-0.45904306
206	0x3e35d590	0.17757249
207	0x3e8b7190	0.2723508
208	0x3e151bb8	0.14561355
209	0x3f0113dd	0.50420934
210	0x3ccbc21d	0.024872834
211	0xbe5c1bfa	-0.21495047
212	0xbe18f449	-0.14936937
213	0xbde0e8ca	-0.10981901
214	0x3e7c9f92	0.24670246
215	0x3ed53df3	0.41648826
216	0xbedbfd8a	-0.42966872
217	0x3ead42f8	0.33840156
218	0xbe271928	-0.1631819
219	0x3e384e24	0.17998558
220	0x3ece2694	0.40263808
221	0x3ec80e99	0.39073637
222	0x3e648e91	0.2232001
223	0xbe38aa30	-0.18033671
224	0xbe5bd020	-0.21466112
225	0xbe4f944c	-0.20271415
226	0xbe40f8a4	-0.18844849
227	0x3dfefb58	0.12450284
228	0x3ed8277d	0.42217627
229	0x3ed72e2a	0.42027408
230	0xbe1e4913	-0.15457563
231	0x3e6550a3	0.22394042
232	0xbee3959a	-0.44450074
233	0xbe397598	-0.18111265
234	0xbed5fee8	-0.4179604
235	0xbe39200c	-0.18078631
236	0x3de3864c	0.111095995
237	0x3be0a482	0.0068555484
238	0xbe707677	-0.23482691
239	0x3d530cc9	0.051525865
240	0x3d9b51bd	0.0758395
241	0x3ed5411f	0.41651246
242	0xbca7b848	-0.020473614
243	0xbe2a52ba	-0.1663312
244	0xbdab1560	-0.08353686
245	0xbeb3e046	-0.35132045
246	0xbec7defc	-0.3903731
247	0x3f05eda6	0.5231575
248	0x3dc4cbbb	0.09609171
249	0x3ecbc6cd	0.3980011
250	0xbd9b8c6d	-0.075951435
251	0xbebe5921	-0.37177375
252	0x3ee67726	0.45012778
253	0x3e870039	0.26367357
254	0xbf002ef0	-0.5007162
255	0x3cb48ef6	0.022040825

network.0.bias f4 [64]
0	0xbed04849	-0.4068015
1	0x3efe12ab	0.49623618
2	0xbee756f0	-0.45183516
3	0x3e48e564	0.19618756
4	0xbda956c3	-0.082685016
5	0x3eacf5ec	0.33781374
6	0x3eb7d804	0.35906994
7	0x3d16cbb3	0.036815356
8	0xbefa9cb2	-0.48947674
9	0xbe2b9b84	-0.16758543
10	0xbd1275b0	-0.035756767
11	0x3de10655	0.10987536
12	0xbda216fb	-0.079145394
13	0xbed2c8f1	-0.4116893
14	0xbccc65c6	-0.024950873
15	0xbd82598c	-0.06364736
16	0xbe55eca4	-0.20891052
17	0xbee8cab4	-0.4546715
18	0x3eccad26	0.39975852
19	0xbe48d298	-0.19611585
20	0x3d60f354	0.054919556
21	0x3e83d4e8	0.25748372
22	0xbc6642d0	-0.014054015
23	0x3ed3f846	0.41400355
24	0xbf066682	-0.52500165
25	0x3ebdc616	0.3706519
26	0x3efa23d8	0.48855472
27	0x3f15c05f	0.5849666
28	0xbef54fb1	-0.47912362
29	0x3e8b660c	0.27226293
30	0x3e2d7080	0.16937447
31	0xbe9606db	-0.29302105
32	0x3d999bc3	0.07500412
33	0xbebaeaad	-0.36507168
34	0x3df2ea9b	0.11861154
35	0x3ec52700	0.38506317
36	0xbe00760c	-0.12545031
37	0x3ee33d23	0.4438258
38	0x3efaeadb	0.49007306
39	0x3c0f2c78	0.0087386295
40	0x3e2eb827	0.17062436
41	0xbe92dd88	-0.2868464
42	0x3ea2f958	0.3183086
43	0xbefc29e7	-0.4925072
44	0x3ea3d3c9	0.31997517
45	0xbe8789a7	-0.26472208
46	0xbdf7a0c9	-0.12091214
47	0x3ebdc971	0.3706775
48	0x3e97a6b3	0.2961937
49	0x3eaae6da	0.3337925
50	0x3e2bc998	0.1677612
51	0xbeefd430	-0.46841574
52	0x3eef00f2	0.4668041
53	0x3eae8ad9	0.34090307
54	0x3e66e19c	0.22547
55	0x3d9e8b0c	0.07741365
56	0xbe8382c2	-0.25685698
57	0x3e82c890	0.25543642
58	0x3e7ab854	0.24484378
59	0x3ea10b23	0.3145381
60	0x3d6e642b	0.058200996
61	0xbd38aeae	-0.045088463
62	0xbee010ff	-0.43762967
63	0x3e4edd3a	0.20201579

network.2.weight f4 [64, 64]
0	0x3df35f95	0.11883465
1	0x3d9a60a1	0.07537962
2	0xbdde25e8	-0.10847074
3	0x3dc0e9bc	0.09419581
4	0x3c8dc92f	0.017307846
5	0x3e80565b	0.25065884
6	0xbbabf960	-0.0052482337
7	0x3dc136ce	0.09434281
8	0x3d20aa20	0.039224744
9	0x3da98bb9	0.08278603
10	0x3d784cb0	0.06062001
11	0x3e8fecd9	0.28110388
12	0x3d9477f3	0.07249441
13	0x3d62f75e	0.05541169
14	0x3b79d2e1	0.0038120078
15	0x3d58d67d	0.052938927
16	0xbd1b6f64	-0.037948027
17	0x3c001a40	0.0078187585
18	0xbdd2d754	-0.10294977
19	0x3da6112e	0.081087455
20	0xbe69a137	-0.22815405
21	0x3c286dc2	0.010280075
22	0x3ed971aa	0.4246953
23	0xbdb6f4c8	-0.08933407
24	0x3cc2bd0e	0.023771789
25	0xbd7df544	-0.06200148
26	0x3c10f550	0.00884755
27	0xbe6a60fb	-0.22888558
28	0x3d59515d	0.05305611
29	0xbd992426	-0.07477598
30	0xbd8412a4	-0.06448868
31	0xbd3949ee	-0.04523652
32	0xbe233722	-0.15939
33	0x3e1d5a83	0.15366559
34	0xbde64088	-0.11242777
35	0xbd09bb6b	-0.033626
36	0xbcdc58e8	-0.026897863
37	0x3d312f8e	0.043258242
38	0xbe06eeee	-0.13177082
39	0xbd86a6ca	-0.06574781
40	0x3dee3d6a	0.116328076
41	0x3dec8dc6	0.11550479
42	0x3ecbdae1	0.3981543
43	0xbdd58811	-0.10426343
44	0xbcc910bd	-0.024544114
45	0x3c5bdb4c	0.013418984
46	0x3ccfcf98	0.025367543
47	0x3e4f7837	0.20260702
48	0xbdb2688c	-0.08711347
49	0x3ddcbdc8	0.107783854
50	0xbebaac7d	-0.36459723
51	0xbd96b49a	-0.07358666
52	0x3db7d459	0.08976049
53	0x3d1157ec	0.03548424
54	0x3dc8a476	0.097969934
55	0x3cbf7ec0	0.023375869
56	0xbdddfd16	-0.10839288
57	0xbd0405bf	-0.032232042
58	0x3df36626	0.11884718
59	0x3a5c3bd9	0.0008401252
60	0x3de1ce60	0.11025691
61	0x3d57460e	0.052557044
62	0x3ea70129	0.32618073
63	0xbdaaca72	-0.08339395
64	0xbe12c4fe	-0.14332959
65	0xbde5220f	-0.11188137
66	0x3be0caa0	0.0068600923
67	0x3ce1bc8b	0.027555725
68	0xbc59a93b	-0.013284977
69	0xbd7f1a1c	-0.06228076
70	0x3cb9a9c8	0.022663966
71	0x3cb4a1ca	0.022049803
72	0x3de43daa	0.11144574
73	0xbda11831	-0.07865942
74	0xbda61bba	-0.08110757
75	0xbeb75475	-0.35806623
76	0x3de2f81a	0.11082478
77	0xbddd8252	-0.10815872
78	0xbde3a38b	-0.11115178
79	0x3dac94d9	0.08426828
80	0x3d3ec00c	0.04656987
81	0x39735feb	0.00023210018
82	0x3d60e6a0	0.05490744
83	0xbc56b090	-0.013103619
84	0x3ed7dbaa	0.42159778
85	0x3d8b5e9f	0.06805157
86	0xbf2a8e8e	-0.6662377
87	0xbdd8583d	-0.10563705
88	0x3dcdf839	0.1005711
89	0x3d4d0a70	0.050058782
90	0xbd951e56	-0.07281177
91	0x3e6c2eff	0.23064803
92	0xbd6033f2	-0.05473704
93	0xbdfebc7a	-0.12438293
94	0x3b923380	0.0044617057
95	0xbd72dae8	-0.059290797
96	0x3d1babcb	0.03800563
97	0xbe1c4655	-0.15261205
98	0xbdfc295f	-0.123125784
99	0x3d7512c2	0.059832342
100	0xbd042bd4	-0.03226836
101	0x3ddc3de1	0.1075399
102	0xbd837405	-0.06418613
103	0xbcf09b43	-0.02937091
104	0x3dd68b6b	0.104758106
105	0xbc954708	-0.018222347
106	0xbee61c80	-0.4494362
107	0xbd89d656	-0.067303345
108	0x3c820a1c	0.015873961
109	0xbaa783c1	-0.0012780355
110	0xbb86ec91	-0.0041175564
111	0xbe94f2e4	-0.2909156
112	0xbd88ba2c	-0.066761345
113	0xbc1a3280	-0.009411454
114	0x3f2ac46a	0.66705954
115	0x3d8a57eb	0.0675505
116	0x3bdd91a9	0.006761749
117	0x3d796b34	0.060893252
118	0x3d009810	0.031395018
119	0x3dbc948e	0.09208022
120	0x3c4a4ff0	0.01234816
121	0x3dc034f1	0.09385098
122	0xbdd5e0dc	-0.10443279
123	0x3d66bc7b	0.056332093
124	0xbd53c269	-0.051699076
125	0x3cc5eb1e	0.024159964
126	0xbebdedba	-0.37095433
127	0xbdd601fc	-0.10449597
128	0x3ddbf23a	0.107395604
129	0xbdfe7648	-0.12424904
130	0x3d261e98	0.04055652
131	0x3d1ddec5	0.038542528
132	0x3da1d93d	0.07902763
133	0xbe0a4f2d	-0.13506766
134	0xbd12c930	-0.0358364
135	0xbc1c806b	-0.009552102
136	0xbde10772	-0.10987748
137	0xbe0fc873	-0.14041309
138	0xbdd2fad8	-0.10301751
139	0xbe0d4817	-0.13797031
140	0xbd36a86c	-0.044594213
141	0x3d213dbf	0.039365526
142	0xbe0cb375	-0.13740332
143	0xbdd1962a	-0.1023372
144	0xbdae424c	-0.08508739
145	0xbd1b06f0	-0.037848413
146	0xbdcc174e	-0.099653825
147	0x3d8f5d0c	0.07000169
148	0x3cb49256	0.022042435
149	0x3ce9370e	0.028468635
150	0xbcc7d4b7	-0.024393423
151	0xbcd74a86	-0.026280653
152	0x3dcc2829	0.099685974
153	0xbd98a822	-0.07453944
154	0xbc88a7e8	-0.016681626
155	0xbcbeb32f	-0.0232788
156	0x3db24828	0.08705169
157	0x3de1adca	0.11019476
158	0xbde9d24a	-0.114170626
159	0xbdcf1977	-0.10112279
160	0xbaeb3049	-0.0017943467
161	0xbdc09a4f	-0.09404432
162	0xbd8a100c	-0.06741342
163	0x3d577c80	0.052608967
164	0x3ca8fe48	0.020629063
165	0x3dddd877	0.10832303
166	0xbe0bea2c	-0.13663548
167	0xbc975209	-0.018471735
168	0xbe0af402	-0.13569644
169	0x3d7ca084	0.061676517
170	0xbdd410ac	-0.103547424
171	0x3dba6ec5	0.09103159
172	0xbe0c60e3	-0.13708834
173	0xbd595136	-0.053055964
174	0xbde0cf38	-0.10977024
175	0x3dacaa35	0.08430902
176	0x3d214639	0.03937361
177	0xbdcad4ae	-0.09903847
178	0xbdc74a50	-0.09730971
179	0x3dcfbd36	0.10143511
180	0x3ce73b33	0.02822647
181	0xbc1ec023	-0.009689364
182	0xbd63b2fc	-0.055590615
183	0xbd253acd	-0.04033928
184	0x3d84f1f2	0.0649146
185	0x3db7cf8b	0.089751326
186	0xbde3f15e	-0.111300215
187	0x3dd22ff4	0.102630526
188	0x3c09d716	0.008413097
189	0xbc64b1d7	-0.013958416
190	0x3ca2bfd6	0.019866865
191	0x3d9fbc1f	0.07799553
192	0x3d7f6a7c	0.06235741
193	0x3d8fdc84	0.07024482
194	0xbd83d192	-0.06436457
195	0x3d208e06	0.039197944
196	0x3c96e102	0.018417839
197	0xbc1d66d7	-0.009607038
198	0xbde28a46	-0.1106153
199	0xbd4945cf	-0.04913884
200	0xbcac66c8	-0.021045104
201	0xbdb76182	-0.08954145
202	0x3d345294	0.044024065
203	0xbbfab3a1	-0.007650808
204	0x3d504ea8	0.050856262
205	0xbddad764	-0.10685614
206	0xbc2737a4	-0.010206137
207	0x3d869782	0.065718666
208	0x3d8ecfdc	0.0697324
209	0xbe104fe9	-0.14092983
210	0x3d2a9008	0.041641265
211	0x3d2ce798	0.042213053
212	0x3dd2b6ce	0.102887735
213	0xbe029325	-0.12751444
214	0xbd735c63	-0.05941428
215	0xbd48e22b	-0.049043816
216	0xbd3b9867	-0.04579964
217	0xbcfed928	-0.031109408
218	0xbc100420	-0.008790046
219	0xbd9ac3b0	-0.07556856
220	0xbde1eba5	-0.11031274
221	0xbdae0224	-0.08496502
222	0x3c4c2d90	0.012462035
223	0x3cd3339f	0.02578145
224	0xbd311424	-0.0432321
225	0x3d46b1ff	0.048509594
226	0x3d37796c	0.04479353
227	0x3d6d39d8	0.057916492
228	0xbdf3b12e	-0.11899029
229	0x3d47a1d3	0.048738312
230	0xbc83e112	-0.016098533
231	0xbdb6ea9a	-0.089314654
232	0xbe03c31b	-0.12867396
233	0x3d1e40b8	0.03863594
234	0xbd8eccec	-0.069726795
235	0xbdc4f433	-0.0961689
236	0x3d7a6fd7	0.061141815
237	0xbbdbe09c	-0.006710125
238	0x3db70e8b	0.08938321
239	0xbe05c683	-0.13064007
240	0x3de75b21	0.11296678
241	0xbdea6ba2	-0.114463106
242	0xbce9429e	-0.028474148
243	0xbd9e9dc9	-0.07744939
244	0x3cf93f09	0.030425565
245	0xbde36118	-0.111025035
246	0xbd8fe094	-0.07025257
247	0xbb1d634b	-0.0024015482
248	0xbc29cee0	-0.010364264
249	0x3cba16c2	0.02271593
250	0xbbe586c0	-0.007004589
251	0x3ccad4b6	0.024759632
252	0x3d5ab4dd	0.05339514
253	0x3d4f1e71	0.05056614
254	0xbca1a728	-0.019733027
255	0xbdaa46ac	-0.08314261

network.2.bias f4 [64]
0	0x3dce2804	0.10066226
1	0x3dc49394	0.09598461
2	0x3d3fccc6	0.046826147
3	0xbd275bf0	-0.040859163
4	0xbdf8bb2e	-0.12145077
5	0x3dd3e76a	0.10346873
6	0xbd9ce45b	-0.07660743
7	0xbd8faec6	-0.07015757
8	0xbd1bb1ad	-0.03801124
9	0x3cc435ed	0.023951495
10	0x3dbafbd1	0.091300614
11	0xbd7e92d8	-0.06215176
12	0xbcf5967e	-0.029978987
13	0x3dad8266	0.08472137
14	0x3de7ec64	0.11324385
15	0xb951d000	-0.00020009279
16	0x3d918b92	0.07106699
17	0x3d6ddae8	0.058070093
18	0xbdca82cd	-0.098882295
19	0xbd6cf02c	-0.057846233
20	0xbcfda2c5	-0.030961404
21	0x3da9c18f	0.082888715
22	0x3d3c9974	0.04604478
23	0x3da83636	0.08213465
24	0xbb7b3a96	-0.003833448
25	0xbdc40f4f	-0.095732324
26	0xbc22b67b	-0.009931202
27	0xbd2105b0	-0.039312065
28	0x3c518929	0.012789049
29	0xbb884bbc	-0.004159419
30	0xbdc8b068	-0.09799272
31	0xbcc3f56f	-0.023920743
32	0xbd902d54	-0.07039896
33	0xbde2a3a5	-0.11066369
34	0x3d0a8f51	0.033828083
35	0x3d42c4d8	0.047551006
36	0xbe068da7	-0.13139974
37	0xbdd95c1f	-0.10613274
38	0x3d9b1da7	0.07574015
39	0x3da535b6	0.08066885
40	0xbdaad5b0	-0.08341539
41	0xbcfba6e8	-0.030719236
42	0xbd866c68	-0.065636456
43	0xbdeee0d5	-0.11663977
44	0x3d309944	0.043114915
45	0x3df22b76	0.11824696
46	0x3da75b90	0.08171761
47	0xbaca0929	-0.0015414107
48	0xbdff067c	-0.12452409
49	0x3d5c2aaf	0.053751644
50	0xbcab5bc0	-0.020917773
51	0x3cb10e00	0.021613121
52	0xbd6a57c1	-0.057212595
53	0xbd7e5a9e	-0.062098138
54	0xbd4159be	-0.047204725
55	0xbc105100	-0.008808374
56	0x3dc834a7	0.09775668
57	0xbe0ded29	-0.1386
58	0x3dc56832	0.09639014
59	0xbc7ec2c0	-0.015549362
60	0x3b2dc799	0.0026516675
61	0xbc0b79d7	-0.008512936
62	0xbc2e7f66	-0.010650491
63	0x3d1aaf8f	0.037765082

network.4.weight f4 [1, 64]
0	0x3e1d897f	0.15384482
1	0xbdca8d45	-0.09890226
2	0xbd1bdeb4	-0.038054183
3	0xbdd2b784	-0.10288909
4	0x3b9b2374	0.004734451
5	0x3e231473	0.1592577
6	0x3e2d8868	0.16946566
7	0x3df92610	0.12165463
8	0xbd20f1fd	-0.039293278
9	0xbc8a676f	-0.016895024
10	0xbdbba2b1	-0.0916189
11	0xbd031350	-0.03200084
12	0x3e7912d3	0.24323587
13	0xbdc2c08e	-0.09509383
14	0x3dd6e5df	0.10493063
15	0xbbed81c0	-0.0072481334
16	0xbd05ea10	-0.032693923
17	0x3b94f240	0.00454548
18	0x3f0786e9	0.5294023
19	0x3e0f96d1	0.14022376
20	0x3d8eec81	0.06978703
21	0xbd3f0fce	-0.046645932
22	0xbca6cd76	-0.020361643
23	0xb9e3c000	-0.00043439865
24	0xbdc954a8	-0.098306
25	0xbda85937	-0.082201414
26	0xbcdfb707	-0.027308954
27	0xbd0c2354	-0.03421338
28	0xbb96788c	-0.004592007
29	0xbdc820b5	-0.09771863
30	0xbd2710e0	-0.040787578
31	0x3e1bca95	0.15213998
32	0x3993d400	0.00028195977
33	0x3e0d2fe1	0.13787796
34	0xbd16802e	-0.036743335
35	0xbd1c17b8	-0.038108557
36	0xbda41dc6	-0.08013491
37	0x3e25bc41	0.16185094
38	0xbbf23b1f	-0.0073923017
39	0xbda9d546	-0.08292632
40	0x3dc12916	0.09431665
41	0x3e179375	0.14802344
42	0xbcb91fc8	-0.022598162
43	0xbd6b650b	-0.05746941
44	0x3dd765ac	0.10517439
45	0x3d28c99c	0.041207895
46	0xbe6b2162	-0.22961953
47	0x3dbbb11c	0.0916464
48	0x3d1c5d8c	0.03817515
49	0x3de2e696	0.11079137
50	0x3d978637	0.07398646
51	0x3d812014	0.063049465
52	0x3ddd3449	0.10800988
53	0xbe344f4d	-0.17608376
54	0xbe091b4a	-0.13389316
55	0xbce0a9e0	-0.027424753
56	0x3e39f066	0.18158111
57	0xbdc1328a	-0.09433468
58	0xbd1213f0	-0.035663545
59	0x3dedb45a	0.11606665
60	0xbbb780e6	-0.0056000827
61	0xbd9ea576	-0.07746403
62	0xbd8d6f8c	-0.069060415
63	0x3e38cc5f	0.18046711
