training_service/models/model_18e270ba.pth (torch, 40931 bytes, 4 tensors)

0.weight f4 [128, 64]
000000 c0 f9 a0 3d ec 4f e5 3d fc 9a 5f bd 7a bc e0 3d
       0.07860136 0.111968845 -0.054591164 0.10973449
000010 68 11 c1 3d 40 29 d4 3c e0 55 d5 bc ba 9b eb bd
       0.09427148 0.025898576 -0.026041925 -0.11504312
000020 80 4f 87 ba 8c 97 ca 3d ae 25 f4 3d 00 0b 49 ba
       -0.0010323375 0.098921865 0.11921249 -0.00076691806
000030 0c c8 58 bd 80 51 b6 3d 06 69 af 3d 08 26 a0 3d
       -0.052925155 0.08902264 0.085649535 0.07819754
000040 3c 7e ab bd b4 de e7 bd 04 c9 5b 3d be 33 c1 bd
       -0.08373687 -0.11321774 0.0536585 -0.09433697
000050 bc fd 1f 3d 66 c4 a7 bd 26 05 c3 3d fa 6c a7 bd
       0.03906034 -0.08191757 0.09522466 -0.081750825
000060 0c e7 57 3d be 12 f3 bd 18 d7 87 bd 2c cc ae 3d
       0.052710578 -0.11868809 -0.06632823 0.085350364
000070 18 fe 97 3c e0 3a 17 3c c0 1e 46 3b 1c 34 9a bd
       0.018553779 0.0092303455 0.003023073 -0.0752947
000080 18 e0 29 3d 44 26 c3 3d 54 50 35 3d 00 ae e5 39
       0.041473478 0.09528783 0.04426606 0.00043807924
000090 26 0f e1 3d c6 3e c7 3d ce c1 97 bd 28 f8 e3 bc
       0.109892175 0.0972877 -0.07410012 -0.027828291
0000a0 84 92 53 3d 3e 90 96 3d 30 34 d0 3d 80 ac 6a 3c
       0.0516534 0.07351731 0.10166204 0.014323354
0000b0 0e d0 93 bd 1e 28 f0 3d 38 f2 96 3d ba e5 be 3d
       -0.07217418 0.11726402 0.07370418 0.093211606
0000c0 4a f5 9f 3d 92 6f e6 bd b2 ad 91 3d a8 36 d6 3c
       0.07810457 -0.11251749 0.07113208 0.026149109
0000d0 00 91 14 bd 32 e7 cf bd 1e bb 80 bd 6c ac 91 3d
       -0.036271095 -0.10151519 -0.0628569 0.07112965
0000e0 50 82 d7 bd ac 9d 56 3d 04 e8 71 3d 0a 97 d8 bd
       -0.10522902 0.05239646 0.059059158 -0.105756834
0000f0 e4 74 ae 3d c4 80 e1 bd a0 80 a0 bb 44 df 7c bd
       0.08518389 -0.11010888 -0.004898146 -0.06173636
000100 70 78 1f 3d 0c f4 e7 bd 42 2d e7 bd a2 1b a6 3d
       0.038933218 -0.11325845 -0.11287929 0.08110739
000110 50 06 b5 3d 60 16 18 bd 16 f2 df 3d 80 89 9b 3d
       0.08839095 -0.037130713 0.10934846 0.075945854
000120 26 e1 c4 3d 9a 85 fd bd c0 e1 3f 3c 60 7d f9 bb
       0.09613256 -0.12378998 0.011711538 -0.007613823
000130 50 ac 33 3c 80 c0 90 3c b8 34 51 3d be 9f 9e bd
       0.0109663755 0.017669916 0.051075667 -0.07745312
000140 40 b3 7a 3b d6 d5 96 bd 90 3d ca 3d f0 8b fd 3d
       0.0038253814 -0.07365005 0.09875023 0.123802066
000150 3e 35 9a bd ca 3c ea 3d 1a c4 c8 3d dc 69 97 bd
       -0.075296864 0.11437376 0.098030284 -0.07393238
000160 3e b6 95 bd b0 06 04 3d 5c 2b 6e bd f8 33 98 bc
       -0.073101506 0.03223294 -0.05814682 -0.018579468
000170 44 9d c5 bd 86 26 88 bd 6e 09 de 3d 40 b7 97 3d
       -0.09649137 -0.06647973 0.10841642 0.07407999
000180 30 f5 da 3d e4 75 3a 3d f4 9b 3c 3d 3c 6f 32 3d
       0.10691297 0.045522586 0.046047166 0.043563113
000190 c0 7f 73 bd c0 af d1 bb 6c 88 44 3d a2 53 fb 3d
       -0.059448004 -0.006399125 0.047981665 0.12271811
0001a0 fe 23 96 bd a8 ed b7 3d 2e 6b ea 3d e0 a2 76 bd
       -0.07331084 0.08980876 0.11446224 -0.060213923
0001b0 1a 4f af 3d f2 a6 94 bd 1a ca da 3d a4 55 5e bd
       0.08560009 -0.07258405 0.10683079 -0.054280892
0001c0 28 65 75 3d 40 a6 9d bc 80 f2 de 3d ec d8 f8 3d
       0.059910923 -0.019244313 0.10886097 0.121507496
0001d0 14 69 e5 3d e8 fe fb bd c4 d1 b2 bd 34 ce 89 bd
       0.11201683 -0.12304479 -0.08731416 -0.06728783
0001e0 c0 8f 04 3c 18 d4 d4 3d 58 8a dc 3d d0 0b 3b 3d
       0.008090913 0.10392016 0.107685745 0.045665562
0001f0 b8 0e 25 bd 18 17 b1 3c 4a 9a de 3d ac 68 4a 3d
       -0.04029724 0.021617457 0.10869272 0.04941623
000200 e0 ce f4 bb 00 f0 1a 38 f0 7e 84 3c d8 d2 9b bd
       -0.0074709505 3.693998e-05 0.01617381 -0.07608575
000210 e0 a5 ae 3d 20 6e ec 3c 34 5f a1 3d 0e 7b 91 3d
       0.08527732 0.028861105 0.07879487 0.07103549
000220 7c df fc 3d 04 f2 9d 3d e0 21 98 3d 12 f8 ea bd
       0.12347314 0.077121764 0.07428336 -0.11473097
000230 c0 a3 4a 3d fe f4 f1 bd 00 1b 77 3b 00 b7 75 ba
       0.04947257 -0.11814307 0.0037705302 -0.00093732774
000240 8c 2c ab bd 6a e0 fc bd 30 a7 55 bc 20 95 ba 3c
       -0.08358106 -0.12347491 -0.013040349 0.022776186
000250 52 15 ad 3d 60 c1 fe bd 68 2c 74 3d d4 2e 97 3d
       0.08451332 -0.12439227 0.05961266 0.07381979
000260 78 c7 b9 3c b0 60 f5 3d 10 e7 e5 3c 1c ba c0 bd
       0.022678122 0.11981332 0.02806428 -0.094104975
000270 ca c1 c0 3d 10 29 fc bc 08 31 d1 3d 20 03 56 3c
       0.09411962 -0.030781299 0.1021443 0.0130622685
000280 86 c7 e4 bd 60 c9 44 3c 4e 83 e6 bd c0 cb 41 3b
       -0.111708686 0.012010902 -0.11255513 0.0029570907
000290 20 2d 77 bc 8e 69 e0 bd 90 1f ca bd 10 1d 53 3d
       -0.015086442 -0.10957633 -0.09869301 0.051541388
0002a0 6c 7f 2e bd 20 3c cb 3b bc 3e 1c bd e8 37 85 3c
       -0.042601988 0.006202236 -0.038145766 0.01626201
0002b0 04 cb b2 3d 88 fa d7 3d ec ec 2d 3d 00 e3 89 3c
       0.087301284 0.10545832 0.042462274 0.016831875
0002c0 98 f5 65 3d fc 0a bd bd 70 b4 3d 3d 74 5f 93 bd
       0.05614242 -0.09230611 0.046314657 -0.071959406
0002d0 a8 ac a0 3d e4 c4 8b 3d ec 8a a3 bd bc 6e 3b bd
       0.078454316 0.06824663 -0.079854816 -0.0457599
0002e0 60 4c 41 bc ec dd d6 3d 94 e0 7e bd 84 f6 89 3d
       -0.011797994 0.10491547 -0.062225893 0.06736472
0002f0 f0 15 4d bc 94 0b 2a 3d d0 00 6d 3c f8 ad c7 bc
       -0.012517437 0.041514948 0.014465526 -0.024374947
000300 b2 37 f1 3d 2c de db 3d ce 89 af bd 10 02 2a bd
       0.11778201 0.10735735 -0.08571206 -0.041505873
000310 14 51 4d 3d e0 2c 9a 3c 74 64 47 3d dc 1e 21 3d
       0.05012615 0.018820226 0.048679784 0.03933607
000320 ba dd dc 3d 80 9a d1 ba 00 ba 81 bb 84 8d 19 3d
       0.107844785 -0.0015991479 -0.0039589405 0.037488475
000330 2e e6 e9 bd 4e ba 93 bd 50 c6 77 3d 40 72 cb bc
       -0.114208564 -0.07213269 0.06049186 -0.024834752
000340 dc 87 be bd 28 e4 42 3d 94 69 b2 bd 38 b4 05 3d
       -0.09303257 0.047580868 -0.08711544 0.032642573
000350 f2 86 d6 3d e2 00 b4 bd ca 57 c6 3d 74 5c 24 3d
       0.104749575 -0.08789231 0.09684713 0.040127233
000360 38 b3 64 3d 94 07 2f 3d 8e 9e 92 3d 60 c6 52 3c
       0.05583498 0.042731836 0.07159148 0.012864679
000370 40 86 72 3d f6 2e d1 bd aa 25 80 bd bc f5 f1 bd
       0.059210062 -0.10214035 -0.06257184 -0.11814448
000380 f4 04 44 bd 0c af 2c 3d 30 88 20 bd 5c 47 bb bd
       -0.047856286 0.042159125 -0.03919238 -0.0914447
000390 58 b7 00 3d a0 82 6e bd 84 80 04 3d c6 f3 da 3d
       0.03142485 -0.058230042 0.032349125 0.10691027
0003a0 5a ee 83 bd b4 00 d1 3d de d1 b2 3d 44 6d 18 3d
       -0.06441946 0.10205212 0.08731435 0.03721358
0003b0 de 64 83 3d 92 4d ab bd c2 c3 b5 3d 3a e8 8d 3d
       0.06415723 -0.08364405 0.088752285 0.06929059
0003c0 fc 1a 24 bd ac 29 63 3d 24 ef e0 bd 92 6b fa 3d
       -0.040064797 0.055459663 -0.109831125 0.12227549
0003d0 60 15 c3 3d 6a 9b 83 3d 74 12 e7 3d f0 e6 18 3d
       0.09525561 0.06426127 0.112828165 0.037329614
0003e0 08 71 c9 3c 8a b3 89 bd d4 da 0f 3d c2 11 d1 3d
       0.02459003 -0.067236975 0.0351208 0.10208465
0003f0 da 00 d6 bd b8 6a db 3c 80 7c ef bb 10 ac 7d bd
       -0.10449381 0.026784286 -0.0073085427 -0.06193167

0.bias f4 [128]
000000 00 4e 89 39 24 c5 80 3d 7c 51 a6 bd d0 b8 bc bd
       0.0002618879 0.062876016 -0.08121011 -0.09214938
000010 36 3a a9 3d 38 12 7b 3d c8 65 4b 3d 48 95 bc bd
       0.08263056 0.06129667 0.049657613 -0.09208161
000020 98 3d 19 bd 94 f2 20 3d c4 81 e7 3d 20 11 d0 3c
       -0.037412256 0.03929384 0.11304048 0.02539879
000030 2c 58 c7 bd f6 e9 f3 bd 6c 6a 6b 3d d0 65 58 bc
       -0.09733614 -0.11909859 0.05747454 -0.013207868
000040 e0 50 bc bc 34 ed 73 bd 84 ba 3a 3d 9a 56 d0 3d
       -0.022987783 -0.059552386 0.04558803 0.10172768
000050 88 0f a3 bc 0c 1d 84 3d 5c 33 f4 bd 6a aa b9 bd
       -0.019904867 0.06450853 -0.119238585 -0.09065707
000060 40 43 40 3b 10 0c 6c bd 24 74 b9 3d 50 b7 81 bd
       0.002933696 -0.05762869 0.09055355 -0.06333792
000070 66 2e a2 3d 20 e3 f5 3d c4 09 41 3d 98 22 03 bd
       0.07919006 0.12006211 0.047128454 -0.032015413
000080 80 30 05 bc c8 9d 2c 3d 80 c5 bb 3d 38 31 ec bc
       -0.008129239 0.04214266 0.091685295 -0.028832063
000090 e0 cb 44 bc b0 e8 ca 3d 54 61 e6 bd f0 e6 ff 3d
       -0.012011498 0.09907663 -0.112490326 0.1249522
0000a0 68 5a cd bc 4e b1 d3 3d fe 56 ee bd 76 0b e8 3d
       -0.025067523 0.103365526 -0.11637686 0.11330311
0000b0 70 cb 5c 3c 90 8a c4 3c d8 29 87 3c bc 32 0b bd
       0.013476238 0.023991853 0.016499445 -0.03398393
0000c0 5c 83 00 3d 3e 9b c5 3d dc 44 af 3d 34 fa 0a 3d
       0.031375274 0.09648751 0.08558056 0.03393002
0000d0 5a fd dc 3d b4 09 3a 3d 7e e3 d8 bd 5e 24 95 bd
       0.107905105 0.04541941 -0.10590266 -0.07282327
0000e0 50 d6 7b bc e6 43 f6 bd 68 0e c8 bd f6 05 99 3d
       -0.01537092 -0.12024669 -0.09768373 0.0747184
0000f0 20 ff 77 3d c0 90 f4 bb 88 23 ce 3c b8 7e 6b bd
       0.06054604 -0.0074635446 0.025163427 -0.057493895
000100 e8 7e 17 3d 88 1e 88 bd 26 3b f1 bd 7c 60 fd 3d
       0.03698626 -0.066464484 -0.1177886 0.123719186
000110 9c e4 58 3d a0 c7 2f bc 00 0a 3c 3a d8 ac ab bd
       0.052952394 -0.010728747 0.0007173121 -0.08382577
000120 5e 54 8c bd f8 13 1c 3d da 24 da 3d 40 6a f3 3c
       -0.06852029 0.03810498 0.1065156 0.02971375
000130 ea bf dc bd e8 19 3e 3d c8 10 06 bd 58 8f f4 3c
       -0.10778792 0.046411425 -0.032730848 0.029853508
000140 f8 12 48 3d be 03 92 bd 28 aa c9 3c d0 05 c0 3c
       0.048846215 -0.0712962 0.02461727 0.023440272
000150 90 13 76 3c 48 71 56 3d 18 b6 c2 bd 84 89 93 bd
       0.0150193125 0.052354127 -0.09507388 -0.072039634
000160 40 92 a5 bc 9e 79 f3 bd d0 9e 8c 3c 48 7c ee 3c
       -0.020211339 -0.11888431 0.017165571 0.029111996
000170 f0 3b 70 3c 66 bc ee 3d 20 d2 c8 3c f0 4f 1d bc
       0.014662728 0.11657028 0.024514258 -0.009601578
000180 82 b7 a9 bd a0 1b 0e bd 54 8f ee bd 10 86 8c bd
       -0.082869545 -0.034694314 -0.116484314 -0.06861508
000190 c6 c6 99 bd 8c dc 4c bd 70 0f e1 3d c8 8d 25 bd
       -0.07508616 -0.050015017 0.109892726 -0.040418416
0001a0 40 db b6 3c 10 4f 53 bc f8 0a db bd 2a cf a3 3d
       0.022321343 -0.012897268 -0.106954515 0.07998498
0001b0 10 af 3d 3c 94 c0 ee 3d 40 1f 75 bc fa 30 fa bd
       0.011577383 0.11657825 -0.014961064 -0.12216373
0001c0 36 d4 d0 3d e6 a0 de 3d 40 ea d0 bb 88 d3 ff 3d
       0.10196726 0.10870533 -0.006375581 0.12491518
0001d0 c0 ad 48 bc 22 57 9f 3d da f3 b3 3d 30 e5 75 3c
       -0.0122484565 0.07780291 0.08786745 0.015008256
0001e0 7c 48 25 3d 44 0e e6 bd 80 eb 3d 3d 10 62 5e 3c
       0.04035233 -0.1123319 0.04636717 0.013573185
0001f0 18 b6 c4 3d 70 40 d6 bc d0 8d bc bc b8 63 bb 3c
       0.09605044 -0.026153773 -0.02301684 0.022874698

2.weight f4 [10, 128]
000000 d9 90 9f 3d 8a b0 1e 3d 7c ce 98 bd ef 31 a5 bd
       0.077912994 0.03874258 -0.07461259 -0.08066165
000010 41 af 9e 3d 4e dc 7d 3d fa ec 6a 3d 19 67 a3 3d
       0.07748271 0.061977677 0.057354905 0.07978649
000020 1c 19 98 bd 78 34 d0 3c e6 96 6e 3d 42 92 35 3d
       -0.07426664 0.025415644 0.058249377 0.044328935
000030 14 00 ee bc 48 93 34 bd 41 7b aa 3d 93 d0 90 3d
       -0.029052772 -0.04408577 0.0832429 0.070710324
000040 c4 bf 82 3c 77 f8 a7 bd c8 d2 51 bd 40 4a 70 3b
       0.015960582 -0.08201688 -0.051226407 0.003666535
000050 e6 72 30 bd 28 54 46 3c 21 49 8b 3d ad 6d a5 3d
       -0.043078326 0.012105025 0.068010576 0.080775596
000060 50 75 8a 3c 0c 23 d2 bc c6 2a e5 bc ef 66 a6 3d
       0.016901642 -0.025651477 -0.027974498 0.08125102
000070 be 91 36 3d d0 87 8e bc 4b 1a 6e bd 56 4b 37 3d
       0.044572584 -0.017398745 -0.058130544 0.04474958
000080 7a 29 6d 3d 20 41 ca bb c9 e0 b0 3d 60 b0 7f bb
       0.057900883 -0.0061723143 0.08636624 -0.003901504
000090 59 57 83 3d e8 87 12 3d 0e bc 40 3d 28 68 15 3d
       0.064131446 0.03577414 0.047054343 0.036476284
0000a0 39 7c aa 3d 59 83 43 bd d9 74 a2 3d f0 80 0c 3d
       0.08324475 -0.047732685 0.07932443 0.034302652
0000b0 30 fb 5c 3c d2 da 6c 3d dc f5 fe 3c 2c 37 f5 3c
       0.013487622 0.05782587 0.031123094 0.029933535
0000c0 d8 d4 1e 3c 20 85 ab 3c 28 48 2a 3c aa 41 76 3d
       0.009694301 0.020937502 0.01039318 0.060121216
0000d0 08 41 50 bc 9f 89 aa 3d c0 bf 8c 3b 20 bb 16 3b
       -0.012710817 0.083270304 0.0042953193 0.0022999719
0000e0 bc f6 8b 3c 10 da e1 3c e9 8c 3c bd 9c dc d5 3c
       0.017085426 0.0275698 -0.04603282 0.026106171
0000f0 da 5f 6e 3d d8 ce 13 3c 64 1a 55 bd 41 7a 04 bd
       0.05819688 0.009021483 -0.05202712 -0.032343153
000100 e6 93 3c 3d c0 af c3 3c 30 14 88 3c 18 4d 46 3c
       0.046039484 0.023887515 0.016611189 0.0121033415
000110 2c 3b e0 3c bc 92 03 bd 12 13 34 3d df 81 af 3d
       0.027371965 -0.03212236 0.0439635 0.08569693
000120 74 e8 a5 bc 76 37 88 bd 00 04 92 39 68 33 cc 3c
       -0.020252444 -0.06651203 0.0002785027 0.024926856
000130 7a 9a 18 bd 9c c5 94 bd d2 d1 96 bd b0 5e 82 bd
       -0.037256695 -0.072642535 -0.07364239 -0.063657165
000140 48 38 7f bc 17 6c b3 3d f6 84 95 bd 09 f9 8a 3d
       -0.015577383 0.08760851 -0.07300751 0.06785781
000150 ba 03 33 3d c2 6f 37 bd 72 d0 5a bd 1b 12 ae 3d
       0.043704726 -0.044784315 -0.053421445 0.08499547
000160 34 aa 92 bc 82 89 88 bd e0 89 c9 bb e8 1b 05 bc
       -0.017903425 -0.066668525 -0.006150469 -0.008124329
000170 b8 df fa 3c 36 0f ad bd 10 6e 19 bc c9 63 a7 bd
       0.030624256 -0.08450167 -0.00936462 -0.081733294
000180 34 21 f2 3c 6d 83 6b bd 9b 2d 8e 3d 36 a1 9a bd
       0.029556848 -0.057498384 0.06942292 -0.0755028
000190 38 75 3d 3c 0c 9c 99 bd 09 a3 80 3d f4 fa 81 bd
       0.011563592 -0.07500467 0.062810965 -0.06346694
0001a0 52 03 8c bd e4 51 70 bd 67 62 0c bd 88 ad 71 bc
       -0.06836571 -0.058671847 -0.03427353 -0.014750846
0001b0 6a 45 48 3d a1 b6 aa bd f7 69 82 3d 5a 38 b0 bd
       0.048894323 -0.08335615 0.063678674 -0.08604498
0001c0 b0 a2 25 bc 7e 48 46 3d 70 a4 59 3c 78 de 88 bc
       -0.0101095885 0.048408978 0.013283834 -0.016707644
0001d0 cf d7 89 3d 78 8c 0f 3c c8 f7 d9 3c 18 8d 9f bc
       0.06730615 0.008761518 0.02660741 -0.019476458
0001e0 45 a1 87 3d 0b 6e b1 3d 28 6f 68 bc 53 03 80 3d
       0.066225566 0.08663567 -0.014186658 0.06250634
0001f0 28 77 70 bd 50 c3 e9 bb 12 d2 21 3d da b5 ab bd
       -0.058707386 -0.007133879 0.03950698 -0.08384295
000200 e0 89 d2 3b 30 af a7 bd 3c 8e c8 3c 8c e3 ad bc
       0.0064251274 -0.08187711 0.024481885 -0.021226667
000210 18 54 43 bd d0 15 83 3c e0 61 86 bb 1b 63 96 3d
       -0.04768762 0.016001612 -0.004101023 0.073431216
000220 58 ce 7c bd 0e cb 1b 3d da 76 23 3d c0 cd af bb
       -0.061720222 0.038035445 0.039908268 -0.0053651035
000230 b3 55 97 3d cc 30 ab bc 9c 55 08 bd 1a b3 4d 3d
       0.07389393 -0.020897292 -0.03328477 0.050219633
000240 42 bd e0 bc c0 dc c6 3a d0 de 4f bd 80 e6 86 bb
       -0.027433995 0.001517199 -0.0507496 -0.004116833
000250 c7 6b ab 3d cd 99 9f 3d 1d ca a2 3d 5c 29 f9 bc
       0.08370166 0.07793007 0.07948706 -0.03041523
000260 2c 8a d2 bc 00 c2 e0 ba 24 fe b5 3c 01 69 9a 3d
       -0.025700651 -0.001714766 0.02221591 0.07539559
000270 08 af ef 3c 5e 17 71 3d d7 c0 07 bd 23 18 96 3d
       0.029258266 0.058860175 -0.03314289 0.073288225
000280 13 57 20 bd 18 6d b3 bd fa 7f 63 3d a0 5d f7 3b
       -0.03914554 -0.08761042 0.05554197 0.0075490028
000290 f9 16 ab bd 12 2f 46 3d 24 18 af 3c 8d 41 84 3d
       -0.08353991 0.048384733 0.021373816 0.06457815
0002a0 2d 90 99 bd 87 37 90 3d 49 ba 94 bd 75 ec 8f bd
       -0.074982025 0.07041841 -0.072620936 -0.070275225
0002b0 77 be 8e bd 00 d5 90 bd 63 0a 82 3d 28 3b 72 3c
       -0.06969922 -0.070718765 0.06349637 0.014784612
0002c0 fd 84 90 3d c0 a0 de 3a e8 d7 90 bc c2 99 4f 3d
       0.070566155 0.0016985163 -0.017681077 0.050683744
0002d0 58 6b 8c 3c 55 e1 a0 3d cc 52 bc bc 07 12 b4 3d
       0.01714103 0.07855479 -0.0229887 0.08792501
0002e0 74 49 fd 3c 44 0d c4 bc b1 87 9a bd e4 77 ad bd
       0.030918814 -0.023932107 -0.07545412 -0.08470133
0002f0 20 ca 69 3c eb a2 99 3d 04 58 b9 3c a0 91 c1 bb
       0.014269382 0.07501777 0.022624977 -0.0059072524
000300 a2 fa 49 3d 00 c6 66 ba f0 2d 96 3b a0 e3 b1 3c
       0.049311288 -0.0008803308 0.004583113 0.021714985
000310 00 ea 04 3a 00 09 60 bc f2 bf 55 3d 76 d3 af bd
       0.0005070269 -0.013674021 0.052185006 -0.08585255
000320 60 c7 9d 3b ea 8d 7b 3d 93 c4 81 3d 40 90 88 bc
       0.004815027 0.061414637 0.06336322 -0.016670346
000330 0a ea 03 3d 0c c9 e3 3c a4 59 d5 3c 00 2c 74 bb
       0.03220562 0.027805828 0.02604372 -0.0037257671
000340 90 3c 38 bc 9b 87 9a 3d 9b aa 5e bd 4c 77 d9 3c
       -0.011244908 0.07545396 -0.05436192 0.026546143
000350 90 4d b5 3c 09 32 a0 3d 78 c6 84 bd ed f8 9a 3d
       0.022131711 0.078220434 -0.064831674 0.0756701
000360 d1 81 4d bd f0 45 11 bd 2d fb 8f 3d 12 ee 86 bd
       -0.05017263 -0.03546709 0.0703033 -0.06588377
000370 79 dc 1e bd ee 43 1f 3d 90 82 e1 bb 00 d2 88 3c
       -0.038784478 0.038883142 -0.0068820193 0.016701698
000380 4c 0e ec bc bd 4e 60 bd 18 9a c5 3c a4 d9 9e 3c
       -0.028815411 -0.05476259 0.02412133 0.019390889
000390 e6 63 75 3d 00 f3 63 3c 3b 91 a0 3d 2d ad b2 3d
       0.059909724 0.013912916 0.078402005 0.08724437
0003a0 75 ff b1 bd e4 98 b0 bc 78 c5 18 bd 67 e8 a5 3d
       -0.08691303 -0.021557279 -0.037297696 0.08100968
0003b0 05 2e 41 bd 40 c9 69 bd c0 82 15 3c 6a 3e 94 bd
       -0.04716303 -0.057076693 0.0091254115 -0.07238467
0003c0 04 ee 86 bc e6 3f 21 3d 57 90 26 bd fe 26 54 3d
       -0.016470917 0.03936758 -0.040664997 0.051795
0003d0 4a 45 2c 3d 90 7d 50 3c da c8 57 3d 78 4f 19 3c
       0.042058267 0.012725249 0.05268178 0.009357326
0003e0 c5 61 76 bd a9 94 50 bd 1d 14 8a bd 3e 5f 4b bd
       -0.060151834 -0.050923023 -0.067421176 -0.049651377
0003f0 b3 c5 64 bd c0 00 89 3b c5 a7 59 bd f6 9b a3 bd
       -0.055852603 0.0041809976 -0.053138513 -0.079887316

2.bias f4 [10]
000000 c8 b9 e6 3c ae e3 76 bd ee dc 8a bd d0 53 1a bc
       0.02816476 -0.060275726 -0.0678042 -0.0094193965
000010 2c 92 a3 bd 8a 66 e6 bc a5 89 8c 3d e8 cb a0 bd
       -0.079868644 -0.028125066 0.06862191 -0.07851392
000020 f8 35 42 3c 39 e1 95 3d
       0.011853687 0.073183484
