training_service/models/model_0c10a12e.pth (torch, 36323 bytes, 3 tensors)

0.weight f4 [128, 64]
0	0x3cf60df0	0.030035943
1	0x3c39fd80	0.011351943
2	0x3dac456e	0.0841168
3	0xbd8a3ff6	-0.06750481
4	0xbd86e46c	-0.06586537
5	0xbdb408e8	-0.08790761
6	0x3d7e64c8	0.06210783
7	0x3dbf93ce	0.093543634
8	0xbdc519be	-0.096240506
9	0xbd9dee96	-0.07711522
10	0xbd4b8858	-0.049690574
11	0xbde2496e	-0.11049162
12	0xbd9422be	-0.07233189
13	0x3daaad7c	0.08333871
14	0x3d25b660	0.04045713
15	0xbdf26e8e	-0.11837493
16	0x3da73266	0.081639096
17	0xbc434cb0	-0.011920139
18	0xbdcd9838	-0.10038799
19	0xbdf42822	-0.11921717
20	0xbdc47b6e	-0.09593855
21	0x3ddb99ea	0.10722716
22	0x3cd1e4e0	0.025621831
23	0xbde600b0	-0.112306
24	0x3d5e3210	0.054246962
25	0x3d074d6c	0.03303282
26	0x3df479c8	0.119372904
27	0x3db6a59e	0.08918308
28	0xbd81e2d4	-0.06342092
29	0x3dd66d8a	0.10470112
30	0xbde69332	-0.11258544
31	0x3bcb1dc0	0.006198615
32	0xbd561dbc	-0.05227445
33	0x3d4fd89c	0.050743684
34	0x3dd8df66	0.10589485
35	0x3df4d662	0.11954953
36	0xbc3c35e0	-0.011487454
37	0xbd5b8c9c	-0.053600892
38	0xbde3c988	-0.111224234
39	0x3dfbd17c	0.12295815
40	0x3da3abe4	0.0799177
41	0x3cd78428	0.026308134
42	0xbd85451a	-0.06507321
43	0x3bc427e0	0.005986199
44	0xbd524194	-0.05133207
45	0x3dbcc282	0.09216787
46	0xbd3b9b80	-0.045802593
47	0xbd04d03c	-0.03242515
48	0xbda330c6	-0.07968287
49	0xbd02ba20	-0.031915784
50	0xbdca76d0	-0.09885943
51	0xbdf381b4	-0.11889973
52	0xbdd699f0	-0.1047858
53	0x3d97600e	0.07391368
54	0x3d19ee3c	0.037580714
55	0xbda1de98	-0.079037845
56	0xbc4658d0	-0.0121061355
57	0xbdc4e2a0	-0.09613538
58	0x3d320a0c	0.043466613
59	0xbd79f450	-0.06102401
60	0xbdb7f0c8	-0.08981472
61	0x3d8d8fca	0.06912191
62	0x3d14a194	0.036286905
63	0xbd820396	-0.0634834
64	0xbd6f5c34	-0.05843754
65	0x3d47aa50	0.048746407
66	0x3d86a642	0.0657468
67	0xbd341364	-0.043963805
68	0xba366800	-0.0006958246
69	0xbc94b878	-0.018154368
70	0xbd798578	-0.0609183
71	0xbdde83ae	-0.1086496
72	0xbdf8a8fe	-0.12141608
73	0x3dcc07ee	0.0996245
74	0xbdea7b2c	-0.114492744
75	0xbd334a60	-0.0437721
76	0x3dc0664e	0.09394513
77	0x3ce86600	0.02836895
78	0xbd871106	-0.06595044
79	0x3ded92b0	0.11600244
80	0x3d7d7250	0.061876595
81	0x3d40ffb0	0.047118843
82	0x3b086d40	0.0020817071
83	0xbd954264	-0.07288054
84	0xbdb87a3e	-0.09007691
85	0xbd7fe6cc	-0.062475964
86	0xbde710e4	-0.112825185
87	0x3dc76ab4	0.09737149
88	0xbd968784	-0.07350066
89	0x3da1987e	0.07890414
90	0xbdbba5d6	-0.0916249
91	0xbd43f380	-0.04783964
92	0x3dc49bba	0.09600015
93	0x3d9d42c4	0.0767875
94	0xbdb5de08	-0.0888024
95	0x3da30e86	0.079617545
96	0xbdfdc9c2	-0.12391998
97	0xbdd32e6e	-0.1031159
98	0x3dc6541c	0.09684011
99	0x3cf856a8	0.030314758
100	0x3dc95c02	0.09832002
101	0x3a109600	0.0005515516
102	0xbc957060	-0.018242061
103	0xbd9bc41c	-0.07605764
104	0xbdec80f2	-0.11548032
105	0x3d790e34	0.06080456
106	0xbd5100b4	-0.05102606
107	0x3db32696	0.08747594
108	0x3cc51750	0.024058968
109	0x3db41daa	0.087947205
110	0xbc5b9640	-0.013402522
111	0xbd208af4	-0.039195016
112	0x3dd0109a	0.101594165
113	0x3d5f6604	0.05454065
114	0x3d86d24a	0.06583078
115	0x3d9446cc	0.07240066
116	0xbd25ec90	-0.040508807
117	0xbbd07400	-0.0063614845
118	0x3dada878	0.084793985
119	0xbcb6f378	-0.022332892
120	0xbcdc3338	-0.026879892
121	0xbdbc1dae	-0.091853485
122	0x3ddf858c	0.10914144
123	0xbc849490	-0.016184121
124	0xbdf1fb92	-0.11815561
125	0xbd83fd40	-0.06444788
126	0xbd5bea5c	-0.0536903
127	0xbd7f4e50	-0.062330544
128	0x3db66b6e	0.08907209
129	0x3de2b6d2	0.110700265
130	0x3dc26b18	0.09493083
131	0x3d349b58	0.04409346
132	0xbd9693d8	-0.07352418
133	0x3db8db30	0.09026182
134	0x3cac0598	0.020998761
135	0xbdd89aa8	-0.10576373
136	0xbc8ff1c8	-0.017571345
137	0xbca1e600	-0.019762993
138	0xbde5179e	-0.11186145
139	0x3de0bf9e	0.10974048
140	0x3dd8fc38	0.10594982
141	0xbd8cd8e0	-0.06877303
142	0x3ddd88aa	0.10817082
143	0xbd3834d8	-0.04497227
144	0xbd095b30	-0.03353423
145	0x3da7329e	0.08163951
146	0x3d52cae0	0.051463008
147	0xbdb00f5c	-0.085966796
148	0xbd69f5b0	-0.05711907
149	0xbd1f9b6c	-0.03896658
150	0x3d5e4748	0.054267198
151	0x3d5793b0	0.05263108
152	0xbcfd6448	-0.030931607
153	0xbcaec548	-0.021334305
154	0x3c75c9c0	0.015001714
155	0x3d9c1dea	0.07622893
156	0xbde1b6ae	-0.110211715
157	0x3dc46406	0.095893905
158	0xbdf5d9d2	-0.120044366
159	0x3df8fbaa	0.12157376
160	0x3dde5912	0.108568326
161	0x3c0cce00	0.008594036
162	0x3d9c37be	0.076278195
163	0xbdf4244c	-0.119209856
164	0xba32e400	-0.0006824136
165	0xbddf785a	-0.10911627
166	0x3d2c8844	0.04212214
167	0x3dce332c	0.10068354
168	0x3d64be1c	0.055845365
169	0xbdf26f74	-0.11837664
170	0x3d5d234c	0.05398874
171	0xbd5cd574	-0.053914502
172	0xbd9786fe	-0.073987946
173	0xbd04f578	-0.03246066
174	0xbd7a3458	-0.061085075
175	0x3d7838e4	0.06060113
176	0x3d579184	0.05262901
177	0xbcf547e8	-0.029941514
178	0xbccf2250	-0.025284916
179	0x3da12cf0	0.07869899
180	0x3d885308	0.06656462
181	0xbc30ad10	-0.010783449
182	0xbdea17f0	-0.11430347
183	0xbc9c1490	-0.019052774
184	0x3dc717e0	0.09721351
185	0xbde633fa	-0.112403825
186	0xbc9fc330	-0.019502252
187	0xbd8c8e4a	-0.06863077
188	0x3da749f2	0.08168401
189	0xbda843ba	-0.08216043
190	0xbd86a9ae	-0.065753326
191	0xbcdbe598	-0.026842877
192	0x3da660a0	0.081238985
193	0xbac93100	-0.0015349686
194	0xbde254fe	-0.11051367
195	0x3dc34282	0.0953417
196	0x3dd00222	0.10156657
197	0x3dc36d8e	0.0954238
198	0xbddb78ae	-0.10716377
199	0xbda59358	-0.08084744
200	0x3d903682	0.070416465
201	0xbc9a70c0	-0.018852592
202	0x3da7b17c	0.08188149
203	0xbd640310	-0.055666983
204	0xbc06d270	-0.008228883
205	0xbba21040	-0.004945785
206	0x3d84b6a8	0.064801514
207	0xbd230c14	-0.03980644
208	0xbdebe41c	-0.11518118
209	0xbdb7569a	-0.08952065
210	0xbd710c30	-0.058849514
211	0x3c871a28	0.016491964
212	0x3dd22b0c	0.10262117
213	0x3d1738b4	0.03691931
214	0xbd0fdc14	-0.035121992
215	0x3cf82ca0	0.030294716
216	0x3d763a10	0.060113966
217	0x3d50ac44	0.050945535
218	0x3df0d980	0.11760235
219	0xbc55f1d0	-0.013058141
220	0x3de522b4	0.1118826
221	0xbd074858	-0.033027977
222	0xbdf90c7e	-0.12160586
223	0x3dffb464	0.12485579
224	0x3db70b00	0.08937645
225	0x3d8ae14e	0.06781255
226	0xbda059ec	-0.07829651
227	0xbdcfb34e	-0.101416215
228	0xbdefe9ba	-0.11714502
229	0x3dd3328c	0.103123754
230	0x3d8815b2	0.06644763
231	0x3d007134	0.03135796
232	0x3d0e01ac	0.034669563
233	0xbdce0ff6	-0.10061638
234	0xbde4bd7c	-0.11168954
235	0xbcbf6a08	-0.02336599
236	0xbc4cc7d0	-0.012498811
237	0x3c82b190	0.015953809
238	0x3dab16c2	0.0835395
239	0xbda1d594	-0.07902065
240	0xbdec41f4	-0.11536017
241	0xbd8256ce	-0.06364213
242	0x3d85e704	0.06538203
243	0xbb601dc0	-0.003419742
244	0xbdb6fedc	-0.08935329
245	0xbca3f568	-0.02001448
246	0xbd4d3ad4	-0.05010493
247	0xbd60b99c	-0.05486451
248	0x3d508070	0.050903738
249	0xbdf6e2ca	-0.12054975
250	0x3dbd9374	0.0925664
251	0x3d8fda1e	0.070240244
252	0xbdae72ac	-0.08517966
253	0x3d64d614	0.055868223
254	0xbd805e5e	-0.06267999
255	0x3dfc9de4	0.12334803

0.bias f4 [128]
0	0xbca022f0	-0.01954791
1	0xbde3a5d8	-0.111156166
2	0xbdcc7e86	-0.0998507
3	0x3d40287c	0.04691361
4	0xbdb70586	-0.089366004
5	0xbde6639c	-0.11249468
6	0xbda65ed6	-0.08123557
7	0xbc27a400	-0.010231972
8	0xbdc60330	-0.09668577
9	0x3d92e90c	0.071733564
10	0x3df77c46	0.1208425
11	0x3c831a98	0.016003892
12	0x3df2fee2	0.11865021
13	0x3d2cbf9c	0.04217492
14	0xbdc1e7d0	-0.09468043
15	0x3dc413f6	0.0957412
16	0xbd325670	-0.043539464
17	0xbce777a8	-0.028255299
18	0xbdf32694	-0.118725926
19	0x3de5cafa	0.11220355
20	0x3b86d940	0.0041152537
21	0x3c6ad300	0.014332533
22	0x3cad8020	0.021179259
23	0x3dc4d3a8	0.09610683
24	0xbb3e1e40	-0.002900973
25	0x3dc0b554	0.094095856
26	0x3cd690c8	0.026192084
27	0xbd391474	-0.04518552
28	0xbdede8d8	-0.11616677
29	0xbdb58224	-0.08862713
30	0xbbad4060	-0.005287215
31	0x3d06e524	0.03293337
32	0x3b962060	0.004581496
33	0x3da379b2	0.07982196
34	0x3c413560	0.011792511
35	0xbd9b6520	-0.075876474
36	0x3dfeb052	0.12435974
37	0xbd1ad8e0	-0.037804484
38	0xbd4873dc	-0.048938617
39	0x3d89b634	0.067242056
40	0xba8e7000	-0.0010867119
41	0x3bd38c00	0.0064558983
42	0x3cb54d50	0.022131592
43	0x3d323390	0.043506205
44	0x3d502350	0.050814927
45	0x3c45d270	0.012074098
46	0x3d2df8f8	0.042473763
47	0x3ce5f190	0.028069288
48	0xbd9bb5e2	-0.07603051
49	0xbd8e4754	-0.069471985
50	0xbdceb132	-0.10092391
51	0xbde426fc	-0.11140248
52	0x3d358d88	0.044324428
53	0xbddc7192	-0.10763849
54	0xbd846a2c	-0.06465563
55	0xbd57ffb0	-0.052734077
56	0xbc0ee070	-0.008720502
57	0xbddc892e	-0.107683524
58	0xbd1c0f8c	-0.038100764
59	0xbd28fa9c	-0.041254625
60	0xbd18e828	-0.037330776
61	0xbdeac992	-0.11464228
62	0x3c8af568	0.016962722
63	0x3c2fa640	0.010720789
64	0x3d0e1d2c	0.03469579
65	0xbbafcda0	-0.0053650886
66	0x3dff8858	0.124771774
67	0x3d8867c2	0.06660415
68	0x3dc5ae5e	0.096523985
69	0x3dfe1e46	0.12408118
70	0x3df1b936	0.11802904
71	0x3de8651a	0.113474086
72	0xbd883a38	-0.06651729
73	0xbdb64688	-0.089001715
74	0x3de38748	0.11109787
75	0x3d8fa376	0.070135996
76	0x3dd725a2	0.10505225
77	0x3d972d16	0.07381646
78	0xbcf9cf30	-0.030494303
79	0x3cb60258	0.022217914
80	0x3dec9476	0.11551754
81	0xbd9a01fa	-0.07519908
82	0x3d8b0aa4	0.06789139
83	0x3d7e1c08	0.06203845
84	0xbc9cc6e8	-0.019137815
85	0x3da5213a	0.08062978
86	0x3d7afc0c	0.061275527
87	0x3c1c4250	0.0095372945
88	0x3d3aa31c	0.04556571
89	0xbddfac06	-0.10921483
90	0xbdb16f72	-0.08663835
91	0xbc9adaf8	-0.01890324
92	0x3dc84b12	0.097799435
93	0x3c98dcf0	0.018660039
94	0xbdace572	-0.08442201
95	0xbd021fd0	-0.03176862
96	0xbdf6dab4	-0.12053433
97	0x3dad9bfa	0.08477016
98	0x3db0c878	0.086319864
99	0xbcf38c48	-0.029729977
100	0xbca42af0	-0.020040005
101	0xbd6d8190	-0.05798489
102	0xbdb82e7e	-0.08993243
103	0xbd747578	-0.05968234
104	0xbdc1b3c2	-0.09458114
105	0xbd6403d8	-0.05566773
106	0x3da456e2	0.08024384
107	0x3d6b659c	0.05746995
108	0x3d1df34c	0.038562104
109	0xbd146db4	-0.036237434
110	0x3c783820	0.0151501
111	0xbd3f4230	-0.04669398
112	0x3d619fe0	0.05508411
113	0xbd25479c	-0.040351495
114	0xbdac02a6	-0.08398943
115	0xbd91e9c4	-0.071246654
116	0xbb7dc6c0	-0.00387232
117	0x3db146fe	0.08656119
118	0x3d0c4e34	0.034254268
119	0x3d2caab4	0.042154983
120	0xbda41714	-0.08012214
121	0xbd37d21c	-0.04487811
122	0x3d2d8304	0.042361274
123	0x3d0fddc4	0.0351236
124	0xbd4aec18	-0.049541563
125	0xbd78193c	-0.06057094
126	0x3ded2ca4	0.1158078
127	0x3dcd44bc	0.10022876

2.weight f4 [1, 128]
0	0x3d8e10c9	0.06936795
1	0x3d30a47e	0.043125622
2	0xbd488955	-0.048959095
3	0xbda76e06	-0.08175282
4	0xbda7d89a	-0.0819561
5	0x3d49f246	0.049303316
6	0x3c0d22f0	0.008614287
7	0x3c9ec1c0	0.019379497
8	0xbc96152c	-0.018320642
9	0xbd4b661b	-0.049657922
10	0x3d8ad1e1	0.067783125
11	0xbc91c278	-0.017792925
12	0x3da05ff3	0.07830801
13	0x3da97e47	0.082760386
14	0xbd84af99	-0.06478805
15	0xbd3c97ba	-0.046043135
16	0x3d8d06d3	0.06886067
17	0xbd28199a	-0.04104004
18	0xbda62b13	-0.081136845
19	0x3d9c467b	0.076306306
20	0x3da83611	0.08213437
21	0xbdb2c30a	-0.08728607
22	0x3d21c286	0.039492153
23	0x3d38973e	0.04506611
24	0xbcb66fd8	-0.022270128
25	0x3d1abfc6	0.037780546
26	0x3d9124ab	0.07087072
27	0xbaec5ec0	-0.0018033609
28	0x3d7cee46	0.061750673
29	0xbdb1a15a	-0.086733535
30	0xbd86d786	-0.065840766
31	0x39737400	0.00023217499
32	0x3b511660	0.0031904206
33	0xbc03ff00	-0.008056402
34	0x3d38861e	0.04504978
35	0x3d919471	0.07108391
36	0x3cfa9470	0.030588359
37	0xbd75349c	-0.059864625
38	0xbd812c87	-0.06307321
39	0x3d31d4a2	0.043415673
40	0x3d937e25	0.072017945
41	0xbd935906	-0.07194714
42	0xbcda21d6	-0.026627462
43	0xbcaeb6c8	-0.021327391
44	0x3d9f9c35	0.07793466
45	0x3dae0f45	0.08499006
46	0xbd1471bb	-0.036241274
47	0x3d888219	0.06665439
48	0x3d96c931	0.07362593
49	0xbd60087e	-0.0546956
50	0x3cb375d4	0.02190677
51	0xbd9e15b4	-0.07718983
52	0xbda1e364	-0.079046994
53	0xbda311d2	-0.07962383
54	0x3d6478aa	0.055779137
55	0x3da84b67	0.08217507
56	0x3d8959cf	0.06706583
57	0xbbd0bdc0	-0.006370276
58	0xbd71df6e	-0.05905097
59	0xbd942004	-0.07232669
60	0x3c9cebb0	0.019155353
61	0x3d74ad96	0.059735857
62	0x3d535612	0.051595755
63	0x3d667b2a	0.056269802
64	0x3c090ed0	0.008365348
65	0x3cafc6b4	0.021457054
66	0x3d836dd1	0.0641743
67	0x3ce1866c	0.027529918
68	0xbaf27840	-0.0018498972
69	0xbd82bac8	-0.06383282
70	0xbd8358fa	-0.06413455
71	0xbb938f20	-0.004503146
72	0xbd818cdf	-0.06325697
73	0xbd785f4c	-0.060637757
74	0x3d00e4b8	0.031468123
75	0x3da70c8f	0.08156692
76	0xbda272cd	-0.07932053
77	0xbd284ae1	-0.041087035
78	0x3cbf4b94	0.023351468
79	0x3db47c65	0.08812789
80	0xbcffc4f0	-0.031221837
81	0x3c09a528	0.008401193
82	0x3c957ed8	0.01824896
83	0xbd74d712	-0.05977542
84	0x3d2b421a	0.041811086
85	0xbd37431f	-0.044741746
86	0x3cc706f4	0.024295308
87	0x3bfe3080	0.0077572465
88	0x3c738290	0.0148626715
89	0xbc8f3f94	-0.017486371
90	0x3d165482	0.036701687
91	0xbd0e0c01	-0.034679417
92	0x3da99017	0.08279436
93	0x3d1a9b36	0.037745677
94	0xbc2c3e98	-0.01051297
95	0xbdb13318	-0.086523235
96	0x3d52d712	0.05147464
97	0xbc8ad9e0	-0.016949594
98	0xbc81a5d8	-0.01582615
99	0x3d302bda	0.04301057
100	0x3d75e836	0.060035907
101	0x3daa757b	0.08323189
102	0x3c19e640	0.009393275
103	0xbc47e880	-0.012201428
104	0xbd9cece2	-0.07662369
105	0xbd036840	-0.032081842
106	0x3c3a7c20	0.011382133
107	0xbdaa0fa4	-0.083037645
108	0xbcb4d750	-0.022075325
109	0x3d1fbc8e	0.03899818
110	0x3bc12f50	0.0058955327
111	0xbc133930	-0.0089858025
112	0xbcfe8bde	-0.031072553
113	0x3cac3070	0.02101919
114	0x3c8b773c	0.017024629
115	0xbd865b27	-0.06560355
116	0x3d981f9b	0.07427903
117	0x3d2f26fe	0.042761795
118	0xbd899d7a	-0.067194894
119	0xbd6a059c	-0.057134256
120	0x3cce9780	0.025218725
121	0x3d3f6c42	0.046734102
122	0xbd7c510e	-0.061600737
123	0x3d216c52	0.039409943
124	0xbd3bbdd9	-0.04583535
125	0xbce2261a	-0.027606059
126	0xbb831d80	-0.0040013194
127	0xbd254e6e	-0.040358
