training_service/models/model_32a6e993.pth (torch, 36323 bytes, 3 tensors)

0.weight f4 [128, 64]
-0.099138394 -0.10933073 0.04905051 0.08278994 0.006214902 -0.06422277 0.084444195 -0.016521737
-0.08391182 -0.105585515 0.09013677 0.10918833 -0.05780755 0.114035204 -0.091832116 0.07396932
0.027153641 -0.120801345 0.07936686 0.09275098 0.09092888 -0.051116064 0.09598549 -0.11736192
-0.07693519 -0.104126126 0.116050884 -0.07862395 0.047857538 0.0019335598 -0.10317564 0.02962853
-0.0233545 0.09494534 -0.12214935 0.019760415 0.10507353 -0.025212362 -0.108426824 0.05179523
-0.031435013 -0.104622796 -0.11946298 -0.05311939 0.036049172 0.09914482 -0.10674122 0.090482086
-0.014130771 -0.06822759 0.023866326 0.08707623 0.058811277 -0.123150244 -0.07864511 -0.06684172
-0.085531 -0.031342447 -0.059188873 0.025194332 -0.101950005 0.10226834 -0.04558161 -0.12423116
-0.087053165 0.023430452 -0.026819319 0.014199406 -0.030160561 -0.078097045 0.10723314 0.045743406
0.008147955 0.03668721 0.08440736 0.03109163 0.07580082 -0.018166438 -0.033495083 0.010836631
-0.08177163 -0.01268357 -0.076149285 0.014549673 -0.0067221075 0.009264454 -0.04855828 -0.028825626
-0.027054444 0.09185198 -0.014995366 -0.06816083 -0.062486485 0.008559018 0.083159626 0.050275907
-0.096954584 0.024229854 -0.10885328 -0.018355533 -0.0054081827 -0.079878524 -0.037112296 0.025554344
0.01889123 -0.04308048 -0.051491305 -0.096643314 -0.08980414 -0.10671267 -0.1086908 -0.062501594
-0.022749454 0.034535617 -0.060598046 -0.11943932 -0.09464954 -0.07424471 -0.067349374 -0.0033084452
0.047850206 -0.0066749007 0.107457384 0.0060797483 0.060606897 0.060443968 0.043092147 -0.023764595
-0.096217394 -0.106711864 -0.03542994 -0.0731986 -0.06700081 -0.10755122 -0.08643025 -0.029032037
0.034208447 0.04241869 0.026080906 -0.06568952 0.07518278 -0.088798404 -0.021704704 0.030108511
-0.056269452 -0.10674566 0.12323445 -0.10850248 -0.124764755 0.053421453 -0.02456361 0.09914231
-0.063893646 0.03167732 0.045357347 0.12322609 0.08793551 -0.030637726 0.11122207 0.00033321977
-0.10728216 0.048074886 -0.06518434 -0.1081173 0.10111457 -0.065237746 0.029412493 -0.014349192
-0.060726583 -0.12052934 -0.040621445 0.004689276 -0.106444806 0.044311166 -0.0026517361 0.0647472
-0.043020457 0.01828511 -0.045060664 -0.057072267 -0.103124514 -0.119503304 0.02859509 -0.06649484
-0.014346167 0.118229434 -0.11658725 0.02339302 -0.11297943 0.0911707 0.017735288 -0.023462027
0.0826278 -0.09411962 0.008615062 -0.08904463 0.062677816 -0.11514203 0.110713705 -0.07150574
-0.08512585 -0.01793094 0.078269795 -0.013317868 0.026181117 0.09222846 -0.08292775 0.02001141
0.026238486 -0.0018656403 -0.1009208 -0.016746745 0.057902828 0.04505387 0.039598882 -0.04854773
-0.05738698 0.06019911 0.03420016 -0.09391619 0.058844954 0.012172326 -0.016259685 -0.08978307
0.069648564 -0.06931856 -0.027930573 -0.098705515 -0.10601489 0.08447681 7.751584e-05 0.037675843
0.05202961 -0.082890764 -0.00963667 -0.0074716657 0.04148303 -0.014867559 0.01900819 0.10542783
0.09431617 0.079074636 -0.11882199 -0.04705432 0.11221914 0.061944872 -0.0338711 -0.044087082
-0.04755692 0.027474374 0.011335149 0.0797472 0.08889346 -0.10757494 0.10073385 0.124758735
00000000: 1209 cbbd cae8 dfbd 30e9 483d c68d a93d
00000010: 60a6 cb3b 3a87 83bd 14f1 ac3d 9858 87bc
00000020: f6d9 abbd 383d d8bd a099 b83d 229e df3d
00000030: 9cc7 6cbd 4a8b e93d 7a12 bcbd 3a7d 973d
00000040: 5071 de3c b266 f7bd 188b a23d 3af4 bd3d
00000050: ec38 ba3d 145f 51bd 0a94 c43d 725b f0bd
00000060: 3290 9dbd 1440 d5bd 16ac ed3d 9805 a1bd
00000070: 4406 443d 806f fd3a c04d d3bd 88b7 f23c
00000080: f051 bfbc b472 c23d 7029 fabd 98e0 a13c
00000090: ca30 d73d 288a cebc e20e debd 3c27 543d
000000a0: 00c2 00bd 7a44 d6bd 02a9 f4bd b893 59bd
000000b0: 4ca8 133d 700c cb3d 249b dabd ac4e b93d
000000c0: c084 67bc e8ba 8bbd 5083 c33c 0655 b23d
000000d0: 18e4 703d 3236 fcbd b010 a1bd 50e4 88bd
000000e0: e02a afbd f060 00bd 0870 72bd 5864 ce3c
000000f0: 2acb d0bd 1072 d13d c8b3 3abd e86c febd
00000100: ee48 b2bd 38f1 bf3c 30b4 dbbc a0a4 683c
00000110: 4813 f7bc 58f1 9fbd 0c9d db3d 705d 3b3d
00000120: 007f 053c 5445 163d c4dd ac3d e0b3 fe3c
00000130: 763d 9b3d c8d1 94bc 2432 09bd 208c 313c
00000140: e277 a7bd c0ce 4fbc 28f4 9bbd c061 6e3c
00000150: 2045 dcbb f0c9 173c 0ce5 46bd b823 ecbc
00000160: 48a1 ddbc e41c bc3d 20af 75bc e897 8bbd
00000170: d4f1 7fbd 203b 0c3c 984f aa3d 1cee 4d3d
00000180: 2090 c6bd b07d c63c 78ee debd 585e 96bc
00000190: 2037 b1bb 5a97 a3bd 1003 18bd 5857 d13c
000001a0: c8c1 9a3c 2875 30bd 8ce8 52bd eeec c5bd
000001b0: 3ceb b7bd 2c8c dabd 4899 debd d600 80bd
000001c0: 105d babc 3875 0d3d a835 78bd 9a9c f4bd
000001d0: 9ed7 c1bd 9c0d 98bd 78ee 89bd 80d2 58bb
000001e0: 94fe 433d 20b9 dabb 9e12 dc3d a038 c73b
000001f0: f03e 783d 1894 773d 6481 303d f8ad c2bc
00000200: a00d c5bd c08b dabd fc1e 11bd 26e9 95bd
00000210: b837 89bd d043 dcbd 5802 b1bd 98d4 edbc
00000220: 281e 0c3d 38bf 2d3d a0a7 d53c 3a88 86bd
00000230: 6ef9 993d f0db b5bd 10ce b1bc 20a6 f63c
00000240: cc7a 66bd 789d dabd 5862 fc3d 8c36 debd
00000250: aa84 ffbd 74d0 5a3d a039 c9bc 200b cb3d
00000260: acda 82bd 14c0 013d a0c8 393d f65d fc3d
00000270: 8817 b43d f8fb fabc 66c8 e33d 00b4 ae39
00000280: c0b6 dbbd 2cea 443d 5e7f 85bd 9a6c ddbd
00000290: 2815 cf3d 5e9b 85bd 78f2 f03c e018 6bbc
000002a0: 70bc 78bd 16d8 f6bd ac62 26bd 80a8 993b
000002b0: bcff d9bd a07f 353d c0c8 2dbb 2e9a 843d
000002c0: 3836 30bd a8ca 953c 8891 38bd 9cc4 69bd
000002d0: f232 d3bd 26be f4bd 4040 ea3c 722e 88bd
000002e0: 300c 6bbc 4622 f23d 4cc5 eebd b8a2 bf3c
000002f0: c261 e7bd b4b7 ba3d 9849 913c 7033 c0bc
00000300: c438 a93d cac1 c0bd 3026 0d3c 085d b6bd
00000310: 3a5d 803d 96cf ebbd debd e23d 9a71 92bd
00000320: 7656 aebd e8e3 92bc ea4b a03d 3033 5abc
00000330: c879 d63c 46e2 bc3d 06d6 a9bd f8ee a33c
00000340: 18f2 d63c 8088 f4ba 90af cebd 7830 89bc
00000350: 842b 6d3d 688a 383d 7032 223d fcd9 46bd
00000360: 9c0e 6bbd 5893 763d 7815 0c3d 2257 c0bd
00000370: 6807 713d 706e 473c 0833 85bc 30e0 b7bd
00000380: e8a3 8e3d e4f6 8dbd a8ce e4bc 1e26 cabd
00000390: 561e d9bd 2e02 ad3d 0090 a238 fc51 1a3d
000003a0: 001d 553d a2c2 a9bd 20e3 1dbc e0d4 f4bb
000003b0: 1cea 293d 1097 73bc 10b7 9b3c 8cea d73d
000003c0: d628 c13d e2f1 a13d f258 f3bd 08bc 40bd
000003d0: 26d3 e53d e8b9 7d3d 6cbc 0abd a894 34bd
000003e0: 0ccb 42bd f011 e13c 10b7 393c 8052 a33d
000003f0: c60d b63d 4050 dcbd 8c4d ce3d 8281 ff3d

0.bias f4 [128]
0.038695216 0.11836085 -0.0073108226 0.033007205 0.053298727 0.017811462 0.05218737 -0.021157548
-0.122772336 -0.034253806 -0.08434746 0.030975997 -0.0028890222 0.10158919 -0.117660016 0.044560567
0.06827165 0.0145107955 0.11872801 0.02747026 -0.10269506 -0.014686614 0.032218337 -0.039384484
-0.0061438233 -0.06806262 -0.022158578 0.09196578 0.010366738 0.09376195 -0.056824 0.039590374
-0.097775 0.055969864 0.022970662 -0.076780975 0.09633429 -0.070232674 0.117354944 0.031443343
0.08500996 0.044878542 0.06901334 -0.026657343 -0.033262864 -0.045830727 0.06801668 0.044263855
-0.055334687 0.091815576 0.092903644 0.09339684 -0.05966273 -0.00022424757 -0.07633363 -0.11248593
0.017504632 -0.028215721 -0.022285998 -0.07479894 -0.0046336055 0.124764025 -0.052010596 0.035230055
0.006040752 0.096962795 -0.026434079 -0.070539385 0.016033426 0.048332468 0.11218467 -0.12259415
-0.08452098 -0.0025528967 0.013261482 -0.046319768 -0.07059771 -0.026597321 0.0043806136 0.055838153
-0.048784688 -0.020576403 -0.0057712793 0.041276947 0.11256622 -0.018865928 0.06728782 0.07198013
-0.08069995 0.006622046 0.0008250326 0.09122127 -0.05196145 -0.11155465 0.0083719045 0.02914539
-0.006138101 0.09338041 -0.087824225 -0.1132081 -0.012664184 -0.03215216 0.07159801 0.101932794
-0.02931568 -0.01378122 0.005615309 -0.11690861 -0.074295 -0.032258883 -0.09044582 -0.01653111
-0.06871368 -0.108304486 0.069190904 0.07386072 -0.07550134 0.02588202 0.006880328 -0.012833327
-0.08828838 -0.11758807 0.051097333 -0.0049352795 -0.026132911 -0.07293372 -0.005580604 0.040452465
00000000: e07e 1e3d 2c67 f23d a08f efbb 9032 073d
00000010: c44f 5a3d 58e9 913c 6cc2 553d 9852 adbc
00000020: 1070 fbbd b84d 0cbd 5cbe acbd 60c1 fd3c
00000030: c055 3dbb fe0d d03d bcf7 f0bd 2485 363d
00000040: 02d2 8b3d b0be 6d3c ac27 f33d 5009 e13c
00000050: ca51 d2bd 20a0 70bc 60f7 033d a051 21bd
00000060: 2052 c9bb 6a64 8bbd e885 b5bc 8e58 bc3d
00000070: 40d9 293c 4406 c03d 48c0 68bd 8429 223d
00000080: 423e c8bd a840 653d f82c bc3c 583f 9dbd
00000090: ea4a c53d 26d6 8fbd ca57 f03d bcca 003d
000000a0: b419 ae3d 90d2 373d de56 8d3d 8060 dabc
000000b0: a43e 08bd 00b9 3bbd 544c 8b3d 044e 353d
000000c0: a0a6 62bd ce09 bc3d 4444 be3d d846 bf3d
000000d0: e860 74bd 0024 6bb9 ce54 9cbd 065f e6bd
000000e0: e065 8f3c a824 e7bc 2091 b6bc 3030 99bd
000000f0: 80d5 97bb 4884 ff3d 1009 55bd 644d 103d
00000100: 80f1 c53b 6e94 c63d 488c d8bc f476 90bd
00000110: 8858 833c 44f8 453d 14c1 e53d a412 fbbd
00000120: 5619 adbd 804e 27bb b046 593c ccb9 3dbd
00000130: 8895 90bd a0e2 d9bc 408b 8f3b 8cb6 643d
00000140: 74d2 47bd d88f a8bc 001d bdbb 0412 293d
00000150: 1e89 e63d b88c 9abc 32ce 893d 526a 933d
00000160: 0446 a5bd c0fd d83b 0047 583a 38d2 ba3d
00000170: 88d5 54bd c476 e4bd 502a 093c 50c2 ee3c
00000180: 2022 c9bb 3a3e bf3d 30dd b3bd a6d9 e7bd
00000190: 707d 4fbc fcb1 03bd faa1 923d 24c2 d03d
000001a0: 7027 f0bc a0ca 61bc a000 b83b c86d efbd
000001b0: fa27 98bd e421 04bd a83b b9bd 406c 87bc
000001c0: c2b9 8cbd bece ddbd f6b3 8d3d 4a44 973d
000001d0: 72a0 9abd 8806 d43c 6074 e13b e042 52bc
000001e0: 8ad0 b4bd 04d2 f0bd 704b 513d 20b8 a1bb
000001f0: b014 d6bc 465e 95bd 80dd b6bb 7cb1 253d

2.weight f4 [1, 128]
-0.06343949 0.022478335 0.06755375 0.028538115 -0.068479724 -0.036125254 -0.036018666 0.035866
0.008761749 0.016259745 -0.03078292 -0.03804013 0.03505329 -0.07879743 0.057923906 -0.069034524
-0.009354472 0.02949448 0.03167972 0.004538581 -0.06458746 0.001418516 -0.027837772 0.02851098
-0.025182217 0.03012935 -0.07112968 -0.05060981 0.02227164 0.022595719 0.0051606894 0.054950155
0.04622204 -0.08622824 0.03163953 -0.04481505 0.07322816 -0.00084675103 0.017067418 -0.042685505
-0.049473044 -0.053527772 0.06353215 0.018134817 0.03415124 -0.015140675 -0.04178032 -0.015506774
0.0052390248 0.07521359 -0.033141278 0.03251665 0.07163725 -0.08783185 0.0481605 0.006085664
0.05666832 -0.07064767 -0.008154653 -0.061486475 0.041916125 -0.060386024 0.034507945 -0.07222472
-0.06755966 0.055793174 -0.04792458 0.012926072 0.06658349 -0.044793196 0.011811741 0.042448275
-0.033930995 -0.03081159 0.08160586 -0.009869054 -0.046579443 0.0374415 0.045695283 0.04325705
0.03547489 0.008287586 0.06985737 -0.041910425 -0.073053055 -0.042967245 -0.03321315 -0.034265567
0.047752775 -0.07667283 0.029994018 -0.014788389 0.048311852 -0.0026820228 0.029286109 0.039706297
0.047758885 -0.046561055 0.07170301 -0.06228316 0.0508442 0.074368306 -0.016205475 0.079862826
0.062013663 0.06832475 -0.062036127 0.028652035 -0.035046577 0.049429186 -0.013512626 -0.0425225
0.05105766 0.059015922 0.04908272 -0.06756501 -0.035054315 0.059303142 -0.08070909 0.08577586
0.07064126 0.063686095 -0.05831205 9.842217e-06 0.0035071 0.07412129 -0.010925747 0.0005002618
00000000: 90ec 81bd 7c24 b83c 9f59 8a3d c4c8 e93c
00000010: 193f 8cbd 13f8 13bd 4f88 13bd 3ae8 123d
00000020: 708d 0f3c 2833 853c 762c fcbc f8cf 1bbd
00000030: 0a94 0f3d 8c60 a1bd 9e41 6d3d f961 8dbd
00000040: 8043 19bc 689e f13c 98c2 013d 60b8 943b
00000050: 6e46 84bd 80ed b93a 0a0c e4bc dc8f e93c
00000060: f04a cebc d4d1 f63c 70ac 91bd 3b4c 4fbd
00000070: 0473 b63c a81a b93c 001b a93b 6a13 613d
00000080: 5253 3d3d 6e98 b0bd 7498 013d fc8f 37bd
00000090: a5f8 953d 80f8 5dba f8d0 8b3c ffd6 2ebd
000000a0: 3fa4 4abd f03f 5bbd 251d 823d 788f 943c
000000b0: 2ce2 0b3d 9810 78bc d721 2bbd 2010 7ebc
000000c0: 20ac ab3b 9509 9a3d 26bf 07bd 2e30 053d
000000d0: 8db6 923d 2fe1 b3bd f243 453d 406a c73b
000000e0: 0a1d 683d baaf 90bd 189b 05bc 3ed9 7bbd
000000f0: 3eb0 2b3d 5657 77bd 3458 0d3d 8eea 93bd
00000100: b85c 8abd 6287 643d 904c 44bd e0c7 533c
00000110: ed5c 883d 1279 37bd 0886 413c 3ede 2d3d
00000120: 3afb 0abd 9668 fcbc f920 a73d d0b1 21bc
00000130: 16ca 3ebd 425c 193d fa2a 3b3d 4e2e 313d
00000140: 1e4e 113d a8c8 073c 6111 8f3d 44aa 2bbd
00000150: d79c 95bd 6cfe 2fbd 830a 08bd 0d5a 0cbd
00000160: 6a98 433d a506 9dbd 04b6 f53c 004b 72bc
00000170: a6e2 453d e0c4 2fbb 6ce9 ef3c 12a3 223d
00000180: d29e 433d ceb6 3ebd 07d9 923d a01c 7fbd
00000190: 0242 503d 694e 983d 58c1 84bc 1f8f a33d
000001a0: 0a02 7e3d d9ed 8b3d 9819 7ebd acb7 ea3c
000001b0: 008d 0fbd 4276 4a3d 1064 5dbc 132c 2ebd
000001c0: d621 513d aeba 713d f60a 493d 865f 8abd
000001d0: 1d95 0fbd dae7 723d cf4a a5bd 41ab af3d
000001e0: 5dac 903d db6d 823d 9ed8 6ebd 0020 2537
000001f0: 60d7 653b e7cc 973d e801 33bc 0024 033a
