training_service/models/model_d7b06d00.pth (torch, 162729 bytes, 6 tensors)

0.weight f4 [128, 64]
0.06943974 0.014857262 -0.11904372 0.0044713914 0.051800415 -0.07381098 -0.092919156 0.11617133
0.035616666 -0.061380625 0.013629407 -0.03962575 0.04235357 0.014595911 0.090324655 -0.064054444
-0.11091116 0.06848267 0.09949057 0.09369278 -0.10558468 0.037819937 0.102155685 0.02559644
-0.06085743 0.11057904 -0.06019202 0.08371678 -0.056439757 -0.040184364 -0.062549084 0.11229862
-0.022005454 0.10779017 -0.00862433 -0.05761893 -0.008053303 -0.09218928 -0.12157577 0.040987507
-0.10664396 -0.04029031 0.020632073 -0.11698669 -0.019145563 -0.08268827 0.11036211 0.010642916
-0.027712181 -0.094166726 -0.08257261 -0.0908172 0.04078786 0.012055486 -0.111291796 0.09919825
-0.0847725 -0.047136128 0.010057732 -0.08592813 0.018236563 0.010243893 -0.022807956 -0.025203869
0.075079024 -0.030262098 -0.12025952 -0.034097284 0.073403046 0.036730096 -0.0027969033 0.06466906
-0.05732782 -0.07306372 -0.04954739 0.1037904 0.05538641 -0.11475879 -0.012270883 0.08890186
-0.003432706 0.037619278 0.06457353 0.12324937 0.08432309 0.04230137 0.042469785 0.075134754
0.01180999 -0.022316188 0.11681758 -0.10821076 0.020137295 0.034519404 -0.020894513 -0.10982478
-0.036346063 0.101801485 -0.10298583 0.00043703616 0.08967246 -0.104722604 -0.092425436 0.034337327
-0.040633425 0.0649056 -0.031631976 0.088369325 0.059478715 -0.06898224 -0.025893152 0.04995349
0.0486086 0.11768085 -0.05796179 0.09909837 0.0075781345 0.005169615 0.009947091 -0.11514187
-0.108173475 -0.0645704 -0.11782852 0.061979383 0.07136874 0.02285792 0.09049694 -0.07473579
-0.04665953 0.112626 -0.05880414 0.02153857 0.10829355 -0.027390987 0.090835184 0.05537224
0.12292428 -0.06768058 -0.10730256 -0.112765685 0.11089465 0.040081203 -0.07267085 -0.006669268
0.039755374 0.12059575 0.099697724 -0.1113348 -0.08613773 0.066716656 -0.11553995 0.08612335
-0.015468299 0.08256833 -0.062584355 0.055596545 0.07232711 -0.1191335 -0.095327824 -0.092765346
0.024545744 -0.070048854 -0.119536474 0.043933153 0.08702327 0.06349571 -0.007301241 0.103367984
0.08718248 0.07325092 -0.09016554 -0.04420553 0.04663846 0.03165272 0.10506655 -0.0028372407
0.08680965 0.070961565 -0.026952013 -0.09829748 0.010839388 0.0572612 0.022909805 -0.009598002
0.00045387447 -0.07945444 0.09044145 -0.07555951 -0.104521215 0.054478496 -0.05684574 -0.09096056
0.05262445 0.0034706295 -0.06271455 -0.04048176 0.058679596 -0.027396038 0.047190234 0.06371227
0.054215953 0.10667719 0.122930154 0.029661313 0.05289477 -0.09209417 0.12491828 -0.0035947412
0.12059344 0.12431125 0.09880224 0.11368768 -0.00993745 -0.07270683 -0.028406069 0.028278694
-0.04746239 0.04396215 -0.08473562 -0.09569384 -0.016158402 0.039797515 -0.041733712 -0.017695427
0.1116669 -0.019490898 0.021248251 -0.12230691 0.06295204 -0.037618533 -0.005053282 0.07481107
0.008961841 0.019618317 -0.0012625605 -0.0038974583 0.10216878 0.035400152 -0.06382412 -0.03984973
0.08734469 -0.059325293 -0.08241704 0.029048488 0.0771433 0.114999205 -0.08444978 -0.10381532
-0.06495419 0.10963765 0.02970855 0.05850397 -0.0060410798 0.005060002 0.09923233 0.084781855
00000000: 6c36 8e3d e06b 733c 32cd f3bd c084 923b
00000010: ac2c 543d 362a 97bd 664c bebd 3ceb ed3d
00000020: c8e2 113d 406a 7bbd e04d 5f3c 9c4e 22bd
00000030: f07a 2d3d b023 6f3c 22fc b83d fa2e 83bd
00000040: 6425 e3bd a440 8c3d b6c1 cb3d 00e2 bf3d
00000050: c83c d8bd 14e9 1a3d 0037 d13d a0af d13c
00000060: a445 79bd 4477 e23d e88b 76bd b473 ab3d
00000070: 602d 67bd 5c98 24bd bc19 80bd d2fc e53d
00000080: c844 b4bc 18c1 dc3d 104d 0dbc d401 6cbd
00000090: 00f2 03bc bccd bcbd b8fc f8bd 84e2 273d
000000a0: 2668 dabd 7407 25bd 9804 a93c b896 efbd
000000b0: 28d7 9cbc 7858 a9bd 8805 e23d a05f 2e3c
000000c0: a804 e3bc 7cda c0bd d41b a9bd 5efe b9bd
000000d0: 2c11 273d 6084 453c f4ec e3bd 7428 cb3d
000000e0: 349d adbd d011 41bd 30c9 243c 16fb afbd
000000f0: d864 953c 00d6 273c c0d7 babc 5878 cebc
00000100: 08c3 993d 38e8 f7bc a04a f6bd 98a9 0bbd
00000110: 5654 963d 4c72 163d 404c 37bb 3671 843d
00000120: 94d0 6abd 6ea2 95bd 34f2 4abd 1090 d43d
00000130: dcdc 623d a806 ebbd d00b 49bc 2e12 b63d
00000140: 40f7 60bb ac16 1a3d 203f 843d 2a6a fc3d
00000150: 96b1 ac3d 3444 2d3d ccf4 2d3d 40e0 993d
00000160: b07e 413c 70d0 b6bc 0e3e ef3d 9a9d ddbd
00000170: f8f6 a43c 3864 0d3d f82a abbc d0eb e0bd
00000180: 9cdf 14bd 4c7d d03d 3cea d2bd 0022 e539
00000190: 32a6 b73d ce78 d6bd 8c49 bdbd 4ca5 0c3d
000001a0: 3c6f 26bd 3aed 843d 8890 01bd fafa b43d
000001b0: f49f 733d 9046 8dbd e01d d4bc 089c 4c3d
000001c0: d019 473d a802 f13d 5869 6dbd 16f4 ca3d
000001d0: 0052 f83b e065 a93b 20f9 223c 80cf ebbd
000001e0: 0e8a ddbd 7c3d 84bd 1450 f1bd 18de 7d3d
000001f0: c629 923d 8840 bb3c 7656 b93d 140f 99bd
00000200: 101e 3fbd 76a8 e63d 9cdc 70bd a871 b03c
00000210: 02c9 dd3d 1063 e0bc cc07 ba3d 00ce 623d
00000220: babf fb3d 1e9c 8abd 72c1 dbbd b2f1 e6bd
00000230: bc1c e33d 302c 243d 74d4 94bd e089 dabb
00000240: 88d6 223d e8fa f63d 522e cc3d 8003 e4bd
00000250: fa68 b0bd bea2 883d 36a0 ecbd 7061 b03d
00000260: c06e 7dbc 9619 a93d 3a2c 80bd 34b9 633d
00000270: 3c20 943d 44fc f3bd 3c3b c3bd c2fb bdbd
00000280: 2814 c93c c675 8fbd 8acf f4bd 40f3 333d
00000290: 4239 b23d 0a0a 823d 403f efbb 98b2 d33d
000002a0: ba8c b23d 9404 963d b6a8 b8bd dc10 35bd
000002b0: f807 3f3d 48a6 013d 222d d73d 00f1 39bb
000002c0: 42c9 b13d 4c54 913d 78ca dcbc 3050 c9bd
000002d0: b097 313c b88a 6a3d 58ad bb3c f040 1dbc
000002e0: 00f6 ed39 02b9 a2bd 5e39 b93d f2be 9abd
000002f0: 380f d6bd d824 5f3d 14d7 68bd 8849 babd
00000300: bc8c 573d 8073 633b 7c70 80bd 34d0 25bd
00000310: 045a 703d a86d e0bc 8c4a 413d 947b 823d
00000320: 8c11 5e3d 9279 da3d cec2 fb3d 48fc f23c
00000330: 30a8 583d de9b bcbd 28d5 ff3d c095 6bbb
00000340: b2f9 f63d e696 fe3d d458 ca3d 16d5 e83d
00000350: b0d0 22bc 52e7 94bd d8b3 e8bc b8a8 e73c
00000360: ec67 42bd a811 343d de89 adbd 22fb c3bd
00000370: a05e 84bc b802 233d f8f0 2abd 00f6 90bc
00000380: 9eb1 e43d 60ab 9fbc d010 ae3c 0c7c fabd
00000390: 00ed 803d e415 1abd 0096 a5bb 8c36 993d
000003a0: b0d4 123c 98b6 a03c 807c a5ba 806c 7fbb
000003b0: de3d d13d c0ff 103d 38b6 82bd 7839 23bd
000003c0: c6e1 b23d 14ff 72bd 44ca a8bd 18f7 ed3c
000003d0: 4efd 9d3d b484 eb3d 02f4 acbd 209d d4bd
000003e0: b406 85bd b489 e03d 585f f33c dca1 6f3d
000003f0: 40f4 c5bb 60ce a53b 523a cb3d 1ca2 ad3d

0.bias f4 [128]
0.0030687898 0.06063938 -0.10219087 0.11577605 0.07359032 -0.07284701 0.016815394 -0.106155634
-0.015272602 0.08064903 -0.006347522 -0.00704962 -0.05580969 -0.071700454 -0.05377738 -0.0010497421
-0.091999665 -0.011837825 -0.07139811 0.09621845 0.039659634 0.060923994 -0.062548846 0.09450638
0.06738381 0.051763117 -0.092950895 0.0863229 -0.091111496 -0.05292259 0.06400189 -0.041249678
0.02954191 0.05697997 0.11839698 0.06386873 0.12469371 -0.091532126 -0.029137537 -0.059807688
-0.05943279 0.08308627 -0.052318245 -0.080701694 -0.012444198 -0.09825902 -0.079596594 0.037388578
-0.12461826 -0.08508229 0.06052062 -0.03159474 0.110280514 0.053292215 -0.099931896 0.034991786
0.05101645 0.012701973 -0.090154335 -0.017071962 -0.117338896 -0.11233117 0.0045372397 -0.107342824
-0.06918654 -0.12126343 0.093844876 0.0051209778 -0.016377687 -0.010460079 0.06361203 0.04533799
0.034045473 0.09648721 0.10460687 0.04362957 0.048668116 0.11637086 -0.106975526 -0.11110388
0.029257625 0.08501461 0.049793214 0.06053357 0.029528663 -0.119912565 -0.09679793 -0.0043622255
-0.012540221 -0.042379543 0.11656515 0.06678222 0.003663376 0.06440532 -0.055690333 -0.11685294
0.011058018 0.0819021 0.04337059 -0.060501605 0.059747413 0.075868756 0.038605735 -0.030381188
0.10639067 -0.019270062 -0.034907132 0.09637746 -0.12276508 0.08816446 0.1029675 0.049123168
0.039728507 0.011494264 0.07125363 0.123786405 -0.035749823 0.09340368 0.025556862 -0.06256974
-0.007045239 -0.078795224 -0.0007365942 0.05415757 0.027020946 0.041029975 -0.07995528 -0.045382872
00000000: c01d 493b 0061 783d 7249 d1bd fe1b ed3d
00000010: 86b6 963d d030 95bd 70c0 893c 2068 d9bd
00000020: f039 7abc 522b a53d e0fe cfbb 8000 e7bb
00000030: b498 64bd b0d7 92bd ac45 5cbd 8097 89ba
00000040: 526a bcbd 70f3 41bc 2c39 92bd 2e0e c53d
00000050: 2472 223d 708b 793d 9c19 80bd 908c c13d
00000060: 8600 8a3d 9005 543d 0a5d bebd 10ca b03d
00000070: aa98 babd 5cc5 58bd 6c13 833d 6cf5 28bd
00000080: e001 f23c d463 693d 1e7a f23d 9ccd 823d
00000090: 6a5f ff3d 3275 bbbd d8b1 eebc e8f8 74bd
000000a0: cc6f 73bd 2229 aa3d a84b 56bd ee46 a5bd
000000b0: c0e2 4bbc 063c c9bd 8a03 a3bd c424 193d
000000c0: dc37 ffbd a03f aebd 78e4 773d 7c69 01bd
000000d0: c0da e13d f048 5a3d 18a9 ccbd 8c53 0f3d
000000e0: a0f6 503d f01b 503c d6a2 b8bd 80da 8bbc
000000f0: 604f f0bd e20d e6bd 20ad 943b 8ed6 dbbd
00000100: acb1 8dbd f658 f8bd be31 c03d e0cd a73b
00000110: 802a 86bc c060 2bbc 0647 823d 54b4 393d
00000120: 4473 0b3d 169b c53d 203c d63d ecb4 323d
00000130: 3858 473d d853 ee3d fc15 dbbd 6e8a e3bd
00000140: b0ad ef3c 241c ae3d f8f3 4b3d 0cf2 773d
00000150: 18e6 f13c b894 f5bd fe3d c6bd 00f1 8ebb
00000160: 8075 4dbc 2c96 2dbd b6b9 ee3d 1ec5 883d
00000170: 4015 703b f0e6 833d 8c1b 64bd 9850 efbd
00000180: b02c 353c 4abc a73d 5ca5 313d 88d0 77bd
00000190: b4b9 743d 1461 9b3d 0c21 1e3d f8e1 f8bc
000001a0: 5ae3 d93d 40dc 9dbc c8fa 0ebd 8c61 c53d
000001b0: 426c fbbd 928f b43d a0e0 d23d 6035 493d
000001c0: 5cba 223d 7052 3c3c 6ced 913d ba83 fd3d
000001d0: 686e 12bd 6e4a bf3d a05c d13c 9024 80bd
000001e0: c0db e6bb 645f a1bd 0018 41ba 54d4 5d3d
000001f0: 085b dd3c 0c0f 283d 98bf a3bd 64e3 39bd

2.weight f4 [224, 128]
0.045559175 -0.033896632 0.08085414 -0.057665423 0.06264909 0.06573518 0.031418577 0.0409889
-0.07465975 -0.046079054 -0.027986519 -0.06966308 0.047135584 0.072629996 0.018736452 -0.02488099
-0.007937156 0.00087083876 0.05232542 0.03574469 -0.0052486435 0.034113646 -0.043516356 0.07802396
-0.025496691 -0.02192682 0.029429235 0.006686263 0.03708469 -0.038516033 -0.03468443 0.040522866
-0.016905367 -0.045850188 0.04799702 0.007846534 0.056476675 0.0005063638 -0.058548518 0.0422538
0.06812673 0.06937688 -0.039684534 0.01995162 0.08344375 0.044646345 0.06097486 0.0029523447
-0.036410894 0.041956328 0.01920183 0.019583583 0.017918691 0.06890894 -0.03794424 -0.08837566
0.011268266 0.008841142 0.067561485 -0.058777012 0.037675805 -0.061686315 -0.073420465 0.06330555
-0.061094932 -0.036470816 -0.017139599 0.015614346 0.019595712 0.010403767 -0.07269343 -0.002808161
-0.034567907 -0.07054213 0.043266468 -0.046320166 -0.020342544 0.02886179 0.057116486 0.0012226403
-0.0695256 -0.07781634 -0.07330295 -0.016869806 -0.05915145 -0.035582002 0.062552355 -0.07831849
0.042858936 -0.079852365 -0.033642992 -0.08026972 0.026357852 0.073200814 0.0530063 0.044886313
-0.07398406 0.045489945 0.06651919 -0.036970023 -0.04454412 0.07755529 0.039303057 -0.013719328
0.02599211 0.06481836 -0.017660245 -0.0014314726 -0.06700723 -0.012898102 -0.0063220486 -0.060530484
0.030050062 -0.015257098 0.0023258552 -0.073517084 0.07338304 -0.01136373 0.06748333 0.07471498
0.020059898 -0.023813866 0.07499384 -0.0297122 0.07238845 0.016592026 -0.08793229 0.016041122
0.07672029 -0.0020702109 -0.048623998 -0.030010946 0.019815162 0.047764383 0.06843788 0.0031277314
-0.06340087 -0.08296746 -0.078427605 -0.028125655 -0.012702204 0.007049091 -0.06548391 0.0162922
0.0126264915 0.040661626 0.004603982 -0.005933717 -0.03588822 -0.07434651 -0.06622034 0.07967896
0.047227137 0.019055203 0.022545338 0.07457786 0.067278735 0.032412387 0.07383435 -0.04840521
-0.08630444 -0.059948087 0.04895156 -0.07194426 -0.0031514764 0.028678566 -0.03231461 -0.08113761
0.08739986 0.0016561523 0.042517833 -0.076568745 -0.060574576 -0.020332314 -0.02523233 0.0070299283
0.041394405 0.0009558499 0.0069907904 0.055897795 0.030192241 0.026326172 0.022895508 0.0075161755
0.051305987 -0.040400513 -0.0842261 -0.08818287 0.07855899 -0.008444667 0.040296413 -0.03803934
-0.035788257 0.08789412 0.06973495 -0.030962456 -0.07125329 -0.005466923 0.05321791 0.007962212
-0.07040886 0.017020047 0.01043947 0.06920258 -0.046212543 0.034724727 -0.0027588084 -0.08761629
-0.0028415844 0.02778729 -0.066647425 -0.0029380172 -0.058540024 -0.06935267 -0.05915346 0.07305414
-0.02039893 -0.05250595 0.051588707 0.023554407 -0.044269815 -0.059085507 0.05715505 0.009979993
-0.0860883 0.079241596 -0.042829752 0.066039585 0.006547101 -0.07052038 0.03748337 0.087806575
-0.06758954 0.071870096 0.017772526 -0.06951973 0.029197969 0.028107904 -0.06813184 -0.05497481
-0.054646403 0.086625 -0.011949703 -0.04908172 0.04030726 -0.042687792 0.0663015 0.06413049
-0.064498894 0.016739652 -0.0063750073 0.032332145 -0.043826327 0.078291796 -0.01559069 0.017616063
00000000: 429c 3a3d 32d7 0abd db96 a53d 9432 6cbd
00000010: 2b4e 803d 2ba0 863d c4b0 003d fae3 273d
00000020: 36e7 98bd 64bd 3cbd fc43 e5bc 84ab 8ebd
00000030: 3e11 413d 09bf 943d 307d 993c 38d3 cbbc
00000040: d80a 02bc 0049 643a 2e53 563d 0669 123d
00000050: d0fc abbb c0ba 0b3d 353e 32bd 07cb 9f3d
00000060: 70de d0bc e09f b3bc 9415 f13c 7018 db3b
00000070: 1ee6 173d fdc2 1dbd 4311 0ebd 4efb 253d
00000080: 207d 8abc 68cd 3bbd 8698 443d c08e 003c
00000090: 1654 673d 80bd 043a 92d0 6fbd 5212 2d3d
000000a0: 0786 8b3d 7715 8e3d 408c 22bd 9471 a33c
000000b0: 8fe4 aa3d 16df 363d c6c0 793d 207c 413b
000000c0: 9723 15bd 66da 2b3d 284d 9d3c c06d a03c
000000d0: 38ca 923c 2120 8d3d 6b6b 1bbd 4cfe b4bd
000000e0: 889e 383c 70da 103c ad5d 8a3d 2ac0 70bd
000000f0: f251 1a3d caaa 7cbd 785d 96bd 57a6 813d
00000100: ae3e 7abd 6c62 15bd 5868 8cbc 50d3 7f3c
00000110: 3087 a03c 9074 2a3c 4be0 94bd 2009 38bb
00000120: 1497 0dbd 6478 90bd 2e38 313d 37ba 3dbd
00000130: 68a5 a6bc 906f ec3c faf2 693d 0041 a03a
00000140: 7063 8ebd 2c5e 9fbd db1f 96bd 8c32 8abc
00000150: ca48 72bd 6fbe 11bd 731b 803d 7265 a0bd
00000160: da8c 2f3d a389 a3bd 3ccd 09bd 7364 a4bd
00000170: 6cec d73c 4fea 953d 221d 593d b6da 373d
00000180: f484 97bd aa53 3a3d 373b 883d e16d 17bd
00000190: e573 36bd 4fd5 9e3d 3efc 203d 08c7 60bc
000001a0: 68ed d43c 7dbf 843d 38ac 90bc 40a0 bbba
000001b0: 163b 89bd 9052 53bc 3029 cfbb d0ee 77bd
000001c0: 8c2b f63c e8f8 79bc 606d 183b 2090 96bd
000001d0: d949 963d f02e 3abc b334 8a3d 2b04 993d
000001e0: a854 a43c 4c15 c3bc 5f96 993d 0067 f3bc
000001f0: 6540 943d 00ec 873c d815 b4bd ac68 833c
00000200: 871f 9d3d 60ac 07bb f529 47bd 84d9 f5bc
00000210: 6853 a23c 96a4 433d 2929 8c3d a0fa 4c3b
00000220: 51d8 81bd d8ea a9bd a79e a0bd c667 e6bc
00000230: e81c 50bc 10fc e63b 6e1c 86bd 3877 853c
00000240: 58df 4e3c ce8c 263d 00dd 963b a06f c2bb
00000250: 87ff 12bd fc42 98bd 889e 87bd b92e a33d
00000260: 3e71 413d a819 9c3c 00b1 b83c 47bc 983d
00000270: 6fc9 893d dac2 043d 7736 973d 8b44 46bd
00000280: 62c0 b0bd 208c 75bd 6e81 483d 8357 93bd
00000290: 0089 4ebb 50ef ea3c 535c 04bd 7a2b a6bd
000002a0: b3fe b23d 4013 d93a 2e27 2e3d 13d0 9cbd
000002b0: 0c1d 78bd f48f a6bc 08b4 cebc 505b e63b
000002c0: 2e8d 293d 0092 7a3a 0013 e53b 16f5 643d
000002d0: b855 f73c fca9 d73c 5c8f bb3c 404a f63b
000002e0: 3a26 523d 027b 25bd bc7e acbd 3899 b4bd
000002f0: 89e3 a03d 805b 0abc da0d 253d 24cf 1bbd
00000300: b596 12bd d501 b43d 33d1 8e3d faa4 fdbc
00000310: 3fed 91bd e023 b3bb 06fb 593d f073 023c
00000320: 8532 90bd a06d 8b3c 500a 2b3c 15ba 8d3d
00000330: 5d49 3dbd 843b 0e3d 20cd 34bb 2b70 b3bd
00000340: e039 3abb 2ca2 e33c 727e 88bd c08b 40bb
00000350: aac7 6fbd c608 8ebd e64a 72bd 699d 953d
00000360: a81b a7bc 7b10 57bd ae4e 533d 2cf5 c03c
00000370: 4454 35bd a503 72bd 6a1b 6a3d 2083 233c
00000380: 104f b0bd 6b49 a23d 406e 2fbd c33f 873d
00000390: 1089 d63b fd6c 90bd 2a88 193d efd3 b33d
000003a0: 626c 8abd a130 933d b097 913c 5c60 8ebd
000003b0: 9430 ef3c 8c42 e63c b588 8bbd 442d 61bd
000003c0: e8d4 5fbd 7368 b13d b0c8 43bc ea09 49bd
000003d0: 3a19 253d 65d9 2ebd 15c9 873d d956 833d
000003e0: ff17 84bd 9821 893c 70e5 d0bb b66e 043d
000003f0: 3c83 33bd 7357 a03d 1870 7fbc 904f 903c

2.bias f4 [224]
0.0299607 0.013657689 -0.055721853 -0.06618531 -0.0039742813 -0.052911576 -0.060076054 -0.0042763054
-0.084831625 0.0642496 0.043344267 0.031644568 -0.06200108 0.07060803 -0.020321563 -0.02238059
-0.046060078 -0.027298491 0.07105356 0.012933478 -0.0684893 0.039031558 0.03352903 -0.01616551
-0.050627384 0.052113704 0.030320846 -0.04568885 -0.06914088 -0.007252753 0.06577266 -0.02864518
-0.044496156 0.05265849 -0.011127345 -0.07128988 -0.010916583 -0.039002966 -0.061815895 0.07645909
0.015416697 0.007386878 -0.0626657 0.071839236 -0.028197948 0.045207 0.0028626248 0.033874497
-0.051948246 0.041878946 -0.03608174 0.084240116 -0.018286832 0.06259801 0.07771035 0.037163697
-0.028452966 0.07504266 -0.06732642 -0.026563019 -0.070609055 0.045874424 0.040806912 -0.058472324
-0.009759881 -0.018086433 0.05035203 -0.009809941 -0.026521925 -0.054335654 0.07829093 -0.047790647
0.088093735 0.05638268 0.061729617 0.026567526 0.056804128 -0.05009372 -0.05184994 -0.03147237
-0.051114243 0.05048982 0.028187841 0.00890208 -0.0060558915 -0.002022557 0.08130712 -0.06911713
0.08355179 0.0077933744 0.06351789 0.076418735 -0.021241084 0.0036939532 0.06465315 0.014529154
-0.010363318 -0.061332516 0.068466805 -0.0390097 0.08538043 0.049961425 0.08341012 0.056301408
-0.012288295 0.0022519678 0.028903455 0.07221218 0.08803279 -0.00738281 -0.0072828084 -0.062522456
0.043762334 0.07512996 -0.07087386 0.07066218 0.07092511 -0.06776881 -0.049608674 -0.027481947
0.05284039 -0.054834682 0.07779803 -0.033255644 -0.010269195 -0.0032088086 -0.06855983 0.029298589
0.05322673 -0.051832374 0.06010417 0.04758867 -0.0058149025 0.015297681 0.06980566 0.061902218
-0.06185696 0.014468104 0.037818275 -0.08351404 -0.0405889 -0.02439665 0.0111505315 -0.0651711
0.002336949 0.034866706 0.06369782 -0.050674997 0.07535175 -0.014501922 0.038160987 -6.215274e-05
-0.070844024 0.063888334 -0.058117203 0.047610633 0.037475638 -0.0148303285 0.008207247 0.0335918
-0.08088216 -0.065648735 -0.007473655 -0.024817936 0.08674797 -0.04883945 -0.012621619 0.056347094
-0.0030574352 -0.04530727 -0.0117248 0.07698739 -0.08232648 -0.053719457 -0.082776934 0.025605455
-0.011466622 0.049298532 -0.04912374 -0.04957583 0.031685993 -0.08709168 0.061626323 -0.045262955
-0.042198993 -0.005502343 0.0804651 -0.03206093 -0.07595062 0.043184496 0.0426246 0.004861936
-0.017405592 0.085327365 0.060086302 -0.076475024 0.06900395 0.045065008 -0.010563515 -0.0017033741
-0.07205581 -0.08593694 0.029780552 -0.048730303 0.024298213 -0.08750665 0.045304053 0.05768589
-0.019816056 -0.017491996 0.016363345 -0.05126771 -0.07431545 -0.06474643 0.033967644 0.050205044
-0.066885404 -0.054425783 0.081795506 -0.06732828 -0.06822793 -0.05853191 -0.05677131 0.021499962
00000000: 2470 f53c 80c4 5f3c 993c 64bd 2a8c 87bd
00000010: b03a 82bb cfb9 58bd 4f12 76bd 4020 8cbb
00000020: 34bc adbd 4b95 833d c289 313d bc9d 013d
00000030: d8f4 7dbd f19a 903d 6879 a6bc 8057 b7bc
00000040: 7ea9 3cbd 16a1 dfbc 8784 913d f0e6 533c
00000050: 1e44 8cbd 8edf 1f3d bc55 093d 886d 84bc
00000060: a95e 4fbd 2e75 553d 6c63 f83c 3b24 3bbd
00000070: bc99 8dbd 80a8 edbb d1b3 863d 4ca9 eabc
00000080: 9a41 36bd 6eb0 573d 784f 36bc 6e00 92bd
00000090: 78db 32bc 93c1 1fbd aa32 7dbd 9596 9c3d
000000a0: 5096 7c3c a00d f23b e056 80bd 7320 933d
000000b0: 62ff e6bc fa2a 393d e09a 3b3b fcbf 0a3d
000000c0: afc7 54bd 4289 2b3d 72ca 13bd 1586 ac3d
000000d0: 44ce 95bc 6333 803d 9b26 9f3d f638 183d
000000e0: 3216 e9bc f7af 993d 6fe2 89bd b09a d9bc
000000f0: 7b9b 90bd d2e6 3b3d 2625 273d ad80 6fbd
00000100: e8e7 1fbc 002a 94bc ee3d 4e3d e0b9 20bc
00000110: 8244 d9bc 108f 5ebd ff56 a03d 20c0 43bd
00000120: 7d6a b43d 86f1 663d 32d8 7c3d 24a4 d93c
00000130: 72ab 683d 132f 4dbd 9a60 54bd 2ce9 00bd
00000140: 2b5d 51bd 6ace 4e3d 30ea e63c 08da 113c
00000150: 8070 c6bb e08c 04bb 5984 a63d 488d 8dbd
00000160: 331d ab3d 905f ff3b ab15 823d 6d81 9c3d
00000170: c801 aebc 4016 723b df68 843d b00b 6e3c
00000180: e8ca 29bc ce37 7bbd 5338 8c3d a3c8 1fbd
00000190: efdb ae3d 5aa4 4c3d edd2 aa3d 4e9c 663d
000001a0: d854 49bc c095 133b f0c6 ec3c fbe3 933d
000001b0: 894a b43d 80eb f1bb a0a4 eebb c60b 80bd
000001c0: 2240 333d bddd 993d 5026 91bd 55b7 903d
000001d0: 2f41 913d 60ca 8abd 7732 4bbd d221 e1bc
000001e0: 2a6f 583d 559a 60bd 9354 9f3d 1237 08bd
000001f0: 2040 28bc e04a 52bb 1969 8cbd 9803 f03c
00000200: 4604 5a3d 2f4e 54bd ca2f 763d 56ec 423d
00000210: f08a bebb 20a3 7a3c 45f6 8e3d 2e8d 7d3d
00000220: b95d 7dbd a00b 6d3c 56e7 1a3d 6909 abbd
00000230: 8c40 26bd 7cdb c7bc b8b0 363c 6d78 85bd
00000240: 8027 193b 64d0 0e3d 0174 823d 9690 4fbd
00000250: 0552 9a3d 7899 6dbc b24e 1c3d 0058 82b8
00000260: ac16 91bd e3d7 823d 4e0c 6ebd 5e03 433d
00000270: 0e80 193d e8fa 72bc b077 063c 8e97 093d
00000280: 8ca5 a5bd d872 86bd 90e5 f4bb fc4e cbbc
00000290: eba8 b13d e00b 48bd e8ca 4ebc 36cc 663d
000002a0: 405f 48bb 1e94 39bd 6019 40bc 91ab 9d3d
000002b0: c99a a8bd ef08 5cbd f486 a9bd 88c2 d13c
000002c0: 80de 3bbc 42ed 493d fa35 49bd 0710 4bbd
000002d0: 2cc9 013d 1f5d b2bd e26b 7c3d a665 39bd
000002e0: dad8 2cbd 004d b4bb e3ca a43d 5252 03bd
000002f0: 008c 9bbd 3ae2 303d 2297 2e3d e050 9f3b
00000300: 2c96 8ebc 1dc0 ae3d 0e1d 763d f09e 9cbd
00000310: f151 8d3d 1696 383d 9812 2dbc c043 dfba
00000320: ff91 93bd b5ff afbd 58f6 f33c 6d99 47bd
00000330: 0c0d c73c b036 b3bd be90 393d 0a48 6c3d
00000340: 4855 a2bc 604b 8fbc 6c0c 863c 17fe 51bd
00000350: b332 98bd c799 84bd a821 0b3d cea3 4d3d
00000360: 37fb 88bd 92ed 5ebd 6784 a73d 69e3 89bd
00000370: 16bb 8bbd 28bf 6fbd 0889 68bd b020 b03c

4.weight f4 [12, 224]
0.028545395 -0.06296413 -0.02998842 -0.041377503 -0.009182751 -0.033020914 -0.027004134 0.01999826
0.0611606 -0.06433489 -0.047914803 -0.043720815 -0.013176747 0.0004490316 0.0659048 0.050449543
0.043504067 -0.03686887 -0.06346595 0.027836405 -0.0072355606 0.0029994175 -0.049267612 0.041388787
0.021762103 0.05495839 -0.06394105 -0.019382745 0.05009991 -0.029031336 0.003580004 -0.061915085
0.040328696 -0.037566908 0.060776256 -0.011057466 -0.04353128 -0.022451542 -0.014630824 -0.04654978
-0.057699442 0.034853913 0.011063531 -0.044114 0.05236894 0.022489391 -0.0150616355 0.019963622
0.03131617 -0.060388196 -0.0065461285 -0.045492265 -0.007851012 -0.039987538 -0.014043722 -0.04551494
-0.036563493 0.002294913 0.048651494 -0.042167496 0.021074817 0.052596666 0.02024097 -0.038362246
0.04519713 0.039946355 -0.054388896 0.017950349 -0.06390244 -0.009478945 -0.030302122 0.052077517
-0.05503775 -0.006714221 -0.045804575 -0.013892174 -0.038947783 0.02644644 0.0008474216 -0.060737006
-0.024236754 0.03374733 -0.023503426 -0.028912988 0.045789234 0.031911373 0.0062958077 -0.037220065
-0.03144492 0.0132698715 0.009414382 -0.05289714 0.0045609623 0.049000762 -0.05988037 -0.059042253
-0.03772621 0.03769642 -0.042035915 -0.010585874 0.012727976 0.01752828 0.034900405 -0.01836614
0.0323169 0.02143681 -0.014299288 0.06500398 -0.030814815 -0.055010144 -0.019537881 0.019124754
0.05547853 0.023603082 0.0340333 0.06008283 0.057991453 -0.038408913 -0.042106707 0.053374767
0.014277779 0.030409701 0.03281758 -0.06465261 -0.047991954 0.04974243 0.062805004 -0.013472121
-0.0049392357 -0.059314176 -0.008436415 -0.02449651 0.038865432 -0.05659683 0.011202 0.052353047
0.03226742 -0.0064573586 0.06089767 -0.053788375 0.012725189 0.030333996 -0.03269793 0.055378757
0.013452373 -0.058239833 0.011687905 -0.022554226 0.056946672 0.036231928 -0.056163475 -0.029881429
0.015245967 0.066411026 -0.009038873 0.051928505 -0.008063491 -0.023430385 -0.05244745 -0.0017174333
-0.03772842 -0.053710796 0.023783244 0.043643847 0.03600374 -0.01520678 -0.042816684 -0.019291356
0.061917506 -0.045653626 -0.013604451 0.03663955 0.042637795 0.03983497 0.045335144 0.024099708
0.0073769093 -0.034933295 -0.0459337 0.019697301 0.049435824 0.05432625 -0.06159918 0.005459532
-0.042960946 -0.060400676 -0.0071482807 -0.032942306 0.055539966 0.06608086 0.010900684 0.053794973
-0.058855966 0.0093539655 0.03396044 -0.027112536 0.008991815 -0.06075759 0.05328215 0.007387884
-0.030984357 -0.03621888 -0.05398363 0.05835905 0.025927298 -0.028930254 -0.057754964 0.044835106
-0.016449545 0.004622303 0.02757743 -0.035117272 -0.047257748 -0.063796945 -0.033479284 -0.02867072
-0.049762346 -0.022681411 0.054408297 -0.022783332 -0.031360593 0.061846234 0.03925009 -0.030656796
0.049293302 -0.061365 0.047590576 0.010313548 0.0633012 -0.0070091337 -0.033966415 -0.058538552
-0.05599233 -0.045458846 -0.009365007 -0.010938391 -0.0012012497 -0.03625545 -0.037599638 0.0071443096
0.040026844 0.0204295 -0.05758656 -0.0047379434 -0.032361515 -0.04179676 -0.046125352 0.02405762
0.041037135 0.06476963 0.023184575 0.029550545 -0.049283728 0.0319312 0.06097073 0.021638677
00000000: 08d8 e93c 56f3 80bd 46aa f5bc 757b 29bd
00000010: 4073 16bc f040 07bd c637 ddbc 64d3 a33c
00000020: 8a83 7a3d 03c2 83bd 5042 44bd 9914 33bd
00000030: 48e3 57bc 006c eb39 19f9 863d 2ea4 4e3d
00000040: 5231 323d d003 17bd 70fa 81bd 2c09 e43c
00000050: 4818 edbb e091 443b d6cc 49bd 4a87 293d
00000060: 7046 b23c 0c1c 613d 86f3 82bd 90c8 9ebc
00000070: 9035 4d3d 20d3 edbc 809e 6a3b ac9a 7dbd
00000080: b42f 253d c2df 19bd 86f0 783d 602a 35bc
00000090: db4d 32bd 4cec b7bc 20b6 6fbc fbaa 3ebd
000000a0: 4056 6cbd fac2 0e3d d043 353c e2b0 34bd
000000b0: d080 563d ac3b b83c 14c5 76bc c08a a33c
000000c0: 6245 003d 9d59 77bd e880 d6bb 1956 3abd
000000d0: 88a1 00bc f9c9 23bd a417 66bc e06d 3abd
000000e0: 9ac3 15bd 4066 163b ca46 473d d3b7 2cbd
000000f0: 18a5 ac3c 9a6f 573d 64d0 a53c bb21 1dbd
00000100: a020 393d ca9e 233d e4c6 5ebd 9c0c 933c
00000110: 48df 82bd 944d 1bbc 283c f8bc 3c4f 553d
00000120: 446f 61bd f802 dcbb 949d 3bbd 009c 63bc
00000130: b687 1fbd 34a6 d83c 8025 5e3a 5ec7 78bd
00000140: 288c c6bc a43a 0a3d 428a c0bc eeda ecbc
00000150: 7e8d 3b3d 80b5 023d 104d ce3b 1174 18bd
00000160: 63cc 00bd e069 593c c83e 1a3c acaa 58bd
00000170: 2074 953b 06b5 483d 1e45 75bd 4ad6 71bd
00000180: cc86 1abd 9067 1a3d da2d 2cbd 6070 2dbc
00000190: 0089 503c 7897 8f3c baf3 0e3d 9674 96bc
000001a0: ba5e 043d 409c af3c 9047 6abc cf20 853d
000001b0: 5a6f fcbc 5152 61bd e80d a0bc 84ab 9c3c
000001c0: 743d 633d 405b c13c 8066 0b3d 6a19 763d
000001d0: 7288 6d3d aa52 1dbd 1578 2cbd 809f 5a3d
000001e0: 58ed 693c c41d f93c ba6b 063d 9668 84bd
000001f0: 3693 44bd b8be 4b3d e99f 803d 2cba 5cbc
00000200: 50d9 a1bb 6cf3 72bd e438 0abc e8ac c8bc
00000210: 5c31 1f3d 14d2 67bd 9888 373c 2670 563d
00000220: d82a 043d 4098 d3bb d66f 793d 3351 5cbd
00000230: 507d 503c 007f f83c 44ee 05bd d6d4 623d
00000240: 5867 5c3c e48c 6ebd a07e 3f3c a4c3 b8bc
00000250: ea40 693d ee67 143d ac0b 66bd e6c9 f4bc
00000260: 38ca 793c 8102 883d c817 14bc fcb2 543d
00000270: bc1c 04bc 14f1 bfbc 23d3 56bd 801b e1ba
00000280: 1e89 1abd daff 5bbd 14d5 c23c e4c3 323d
00000290: a878 133d dc25 79bc 8c60 2fbd e808 9ebc
000002a0: 369d 7d3d 4cff 3abd 34e5 5ebc 5a13 163d
000002b0: f8a4 2e3d fe29 233d 58b1 393d c06c c53c
000002c0: 00ba f13b 3716 0fbd fa24 3cbd 3c5c a13c
000002d0: 387d 4a3d 3485 5e3d 6c4f 7cbd e0e5 b23b
000002e0: d1f7 2fbd b366 77bd 203c eabb 83ee 06bd
000002f0: e07d 633d 6755 873d c898 323c 1e58 5c3d
00000300: f412 71bd 6041 193c 1a1a 0b3d 1c1b debc
00000310: 6852 133c f3dc 78bd 623e 5a3d 1016 f23b
00000320: e8d2 fdbc 405a 14bd f01d 5dbd e609 6f3d
00000330: 7c65 d43c 24ff ecbc 7890 6cbd 04a5 373d
00000340: 32c1 86bc b076 973b 10ea e13c 21d7 0fbd
00000350: 5791 41bd f9a7 82bd 9321 09bd dcde eabc
00000360: 9ad3 4bbd 5ece b9bc 3cdb 5e3d 1ca4 babc
00000370: f773 00bd 7a52 7d3d b4c4 203d f623 fbbc
00000380: c6e7 493d de59 7bbd 56ee 423d 28fa 283c
00000390: 0fa4 813d e0ac e5bb 5e20 0bbd 1fc6 6fbd
000003a0: 3758 65bd 0e33 3abd b06f 19bc f036 33bc
000003b0: 4073 9dba 9880 14bd 1402 1abd d01a ea3b
000003c0: 30f3 233d c45b a73c e2df 6bbd c040 9bbb
000003d0: 828d 04bd 1433 2bbd f0ed 3cbd 7c14 c53c
000003e0: 8e16 283d f1a5 843d 94ed bd3c fc13 f23c
000003f0: bcdd 49bd 4aca 023d 72bc 793d 9843 b13c

4.bias f4 [12]
-0.0068673417 0.04201076 -0.03283188 0.02946154 0.02816359 -0.016646001 -0.055751327 -0.028932642
-0.063007005 0.021160193 0.014166221 0.015212469
00000000: 7007 e1bb 7a13 2c3d b97a 06bd 5459 f13c
00000010: 54b7 e63c 325d 88bc 815b 64bd 2604 edbc
00000020: d109 81bd 2458 ad3c 7019 683c b83d 793c
