training_service/models/model_6f5176bd.pth (torch, 11433 bytes, 5 tensors)

0.weight f4 [100, 10]
00000000: 80c8 0ebc 4823 8f3d 6f02 81be 8868 723d
00000010: f89e 01bd d3dc 7bbe 7af1 89be 00a1 98be
00000020: 96a1 e0bd d86c 313e 426d a1bd c06b 3abe
00000030: c2b3 52be 0039 a73d f0e2 8d3c d952 923e
00000040: fb52 2cbe 0c63 54be fa04 5fbe c2f2 463e
00000050: 0bec 9a3e 2b7a 10be 2263 babd b844 1a3e
00000060: 705f d0bd 4016 eb3d 902d 67be 0038 ccb9
00000070: b055 20bd 8907 8b3e 0263 693e 5ac8 783e
00000080: 5e6b 02be f889 333e ffaa 933e c0f1 24bc
00000090: 000b 233b e0c2 9bbc 2301 2ebe a5cf 78be
000000a0: ec3f 8fbe e751 9bbe f039 6ebd 440b 84bd
000000b0: 0229 4fbe 3cce 993d 7025 99be 0c71 4fbe
000000c0: bb40 9bbe 3296 7a3e 0aea 7d3e ab41 8f3e
000000d0: 1c17 fcbd 863d 2cbe 609c cc3c 45b7 3abe
000000e0: 9262 7d3e 54fe e2bd 8086 323b 3275 123e
000000f0: d74c 933e f0c9 853d 5f01 76be 8031 fd3d
00000100: 1261 6b3e c4d2 8a3d 9053 23bd eaea 603e
00000110: c0c2 2bbe 524a 753e 1387 0dbe 6404 b1bd
00000120: 8d48 853e 44a4 fd3d 8ace 4f3e 32a8 723e
00000130: 6adc 323e 8c9d cc3d 8c3a 2fbe 502c 2d3d
00000140: 026b 8bbd 900f 1d3d 0029 7cbb 94a2 b43d
00000150: 466b 0bbe 4208 173e f3d8 8dbe 5efc 1fbe
00000160: 48d4 853d 473d 883e 98d6 e93d 1052 2bbe
00000170: 1a98 513e 5815 143e 3d6f 08be f30b a1be
00000180: d069 5fbe 14ba 4abe 68a8 4dbd e62c a0be
00000190: 36f9 ccbd 1c83 953d c5f3 863e d1ff 913e
000001a0: 0cff 293e 38a6 053d 2e48 4f3e 92fb 93bd
000001b0: ea18 e7bd 00b4 0b3a 9cc1 73be 50cd bebc
000001c0: a635 7a3e f2e5 403e 3f20 92be ab1b 903e
000001d0: 52e5 91be 58b9 903d 2af8 62be 45d1 a03e
000001e0: cd9b 07be 80d4 22bc 751d 87be acc8 64be
000001f0: 209d 02bc 60aa 95be 759e 933e 30cf ec3d
00000200: 8057 04bc 26fe 453e 04aa e5bd 5a83 6ebe
00000210: c5d0 94be 3409 f7bd 6079 03bc 9a97 46be
00000220: aa73 103e 0fa2 883e 5ecc 1abe 1aa2 3abe
00000230: d832 2dbd f7b2 8f3e 094f 963e 3ca4 84be
00000240: 4a0c 7e3e de17 443e 8e6c 723e 42cb 643e
00000250: 41d3 45be eee1 bcbd 9f5d 833e a5cc 8e3e
00000260: fe40 39be 20c0 1f3e f852 ed3d 6904 8abe
00000270: 0447 9d3d d4d4 56be e9ee 19be 2d9b 933e
00000280: a8a1 32bd 0250 403e 10b8 88bc d806 1dbe
00000290: 9e66 75be 0694 fdbd 45e9 3bbe 3039 0c3e
000002a0: 845a 323e 06e2 773e 1448 34be 5476 e93d
000002b0: ca77 2f3e c35b 933e 3b3a 52be e5be 84be
000002c0: 60fd dabd 1c70 8abe 534a 853e 394f 8e3e
000002d0: 9eec 0b3e eed2 423e 6b11 03be 2d92 a0be
000002e0: 9721 3ebe 0cd4 283e cc39 c93d 8e34 343e
000002f0: 30cc d33c 4290 7f3e 5a7e 71be 03f2 7bbe
00000300: 9e80 0ebe c8ee f43d 0e17 1a3e 00c1 af3a
00000310: 7e0e 7ebe 18b1 2f3e e26b 2b3e 90cb 76be
00000320: 9d1e 66be 0c06 88be 6c7b 4dbe 90a0 f33c
00000330: c007 0e3d 00f1 b9ba 1e37 00be 8e1e c8bd
00000340: ff6e 8a3e 78ed 94bd 689d 893d 5c8b 1ebe
00000350: ea88 7f3e b97d 9d3e 2414 f93d a0e0 3c3c
00000360: c171 1cbe 5e5b bdbd 8444 9abd 3c48 b1bd
00000370: e0d0 213c 06f4 5dbe 1e1b 06be 45a0 99be
00000380: 774d 8bbe e4d4 ec3d 2ade 423e 703d 9ebe
00000390: 4872 0e3e f847 97be 9071 a6bc 9cf4 d23d
000003a0: 1cc0 ff3d ad81 9a3e 2bfb 25be a613 33be
000003b0: 2002 283c 8e44 3e3e 165a 643e 9a81 073e
000003c0: e045 afbc 9a3f 6a3e 3de3 87be d689 303e
000003d0: 13a4 933e 1083 49bd da2d 07be 03f6 2fbe
000003e0: e0d6 fb3c 7e48 7a3e 8c11 c7bd a8e8 26bd
000003f0: 753c 8c3e 9e99 7e3e ba15 8fbd 53db 90be
-0.008714795 0.06989151 -0.2519717 0.05918172 -0.031645745 -0.24595957 -0.26942044 -0.29810333
-0.1096832 0.17326677 -0.078821674 -0.18205166 -0.20576385 0.08165169 0.017320126 0.28578833
-0.1682853 -0.20740908 -0.21779242 0.19428542 0.30258211 -0.14109103 -0.09100939 0.15065277
-0.10174453 0.11478853 -0.22575974 -0.00038951635 -0.039144218 0.27154186 0.22791675 0.24295178
-0.1273627 0.175331 0.28841397 -0.010067403 0.0024878383 -0.019013822 -0.16992621 -0.2429796
-0.27978456 -0.30335924 -0.058160722 -0.06447461 -0.20230487 0.07510039 -0.29911375 -0.20257968
-0.30322823 0.24471357 0.2479631 0.27979788 -0.12309095 -0.16820344 0.02497691 -0.18233974
0.24744633 -0.110836655 0.0027240813 0.14302519 0.28769562 0.06532657 -0.2402396 0.12362957
0.22986248 0.067784816 -0.039874613 0.21964613 -0.1677351 0.23954132 -0.13821058 -0.086434156
0.26031914 0.12384847 0.20293632 0.23696974 0.17466894 0.09990987 -0.17112178 0.042278588
-0.068075195 0.03834492 -0.0038476586 0.08820072 -0.1361514 0.14749244 -0.27704582 -0.15623614
0.0653463 0.2660925 0.11417884 -0.16730523 0.20468178 0.14461267 -0.13323684 -0.3145443
-0.21817708 -0.19797546 -0.050209433 -0.31284255 -0.10008471 0.07300398 0.26357856 0.28515485
0.16601199 0.03262922 0.20242378 -0.072257176 -0.11284049 0.0005329251 -0.23804325 -0.02329126
0.24434528 0.18837717 -0.28540227 0.2814611 -0.2849527 0.070666015 -0.2216498 0.3140966
-0.13243027 -0.009938359 -0.2638966 -0.22342175 -0.007972032 -0.29231548 0.2883183 0.115629554
-0.008077502 0.19335231 -0.112140685 -0.23292294 -0.2906553 -0.12062302 -0.0080245435 -0.19393769
0.14106622 0.2668614 -0.15117022 -0.182259 -0.042284817 0.28066227 0.29357174 -0.2590655
0.24809375 0.1914973 0.23674223 0.22343162 -0.19318868 -0.0922278 0.25657365 0.27890506
-0.18091199 0.15600634 0.11588091 -0.2695649 0.07679561 -0.20979625 -0.15032543 0.28829327
-0.0436112 0.1878052 -0.01668933 -0.15334642 -0.23964927 -0.12381749 -0.18350704 0.1369369
0.17417341 0.24207315 -0.1760562 0.113995224 0.1713554 0.28780946 -0.20530026 -0.2592689
-0.10692859 -0.27038658 0.26033267 0.27794817 0.13664481 0.19025776 -0.12799613 -0.31361523
-0.18567501 0.1648714 0.09825477 0.17598173 0.0258542 0.24957374 -0.23583356 -0.24604039
-0.13916251 0.119596064 0.15047857 0.0013408959 -0.24810216 0.171574 0.16740373 -0.2410109
-0.22472616 -0.26567113 -0.20066613 0.029739648 0.03467536 -0.0014186203 -0.12521026 -0.09771453
0.27037808 -0.07271856 0.06719476 -0.15482849 0.24954572 0.3075998 0.12162045 0.011528164
-0.15277769 -0.092459425 -0.075325996 -0.08656356 0.00987646 -0.21675119 -0.13096282 -0.30005088
-0.27207538 0.11564043 0.19030061 -0.30906248 0.13910782 -0.29547095 -0.020317823 0.10300562
0.12487814 0.3017706 -0.16209094 -0.17487964 0.010254413 0.18580839 0.2229999 0.13233033
-0.021395624 0.22875825 -0.26540557 0.1724008 0.28836116 -0.049197257 -0.13201085 -0.1718369
0.030742109 0.24441716 -0.09720144 -0.040749222 0.27389875 0.24863288 -0.06986566 -0.2829233

0.bias f4 [100]
00000000: 3cda 44be 804f 9dbe 1c26 c2bd 202d 373d
00000010: d52a 86be 30df c5bc 9010 d23d 2ed3 b7bd
00000020: f4bd 78be 5e38 19be 89f1 873e 287d 573d
00000030: 869d 9cbe 7c80 93bd 59dc 863e a482 7dbe
00000040: f86b 32bd 6572 923e b80c 4b3d 2170 99be
00000050: b0b2 89be d0fe ff3c 003c 8a3d 1873 40bd
00000060: 6e38 443e 0372 843e 40a0 4e3c 105e 23bd
00000070: 9eef 6e3e 3003 cabc f843 4ebe d881 78be
00000080: 90aa 32be 6c77 033e 0899 303d 80da dabb
00000090: 92e4 443e 00a0 123b e274 4c3e e6d8 413e
000000a0: 8472 77be 20e1 e13d 1065 4a3d 20c8 75bd
000000b0: 3e25 37be a85f 1b3d 2068 a53d dc8d 283e
000000c0: 65ed 8a3e 0024 b03c 8159 01be 188a 153d
000000d0: f021 3bbe 9670 d9bd 4d40 923e 38ca 59be
000000e0: 8060 db3c 51dc 90be 92fa 4f3e ddc7 83be
000000f0: 0092 963a faad 173e 5002 843d fef0 5a3e
00000100: c277 62be 4434 273e dee7 6e3e d03f cc3c
00000110: aa30 6d3e 5fdf 92be b759 a03e a84c b93d
00000120: bbb2 33be b080 c1bd f821 113e cb8f 7ebe
00000130: c139 8abe e816 8cbe 3583 7dbe e620 0c3e
00000140: bb56 873e 40bf 873b a8fd 53be 48fb 733d
00000150: f092 f6bd 911b a13e 8a53 4b3e afaf 9d3e
00000160: b724 92be 0094 c5bd 2e87 96bd 7aa8 513e
00000170: f13c 69be 7ef3 4e3e 7464 99be 2796 3dbe
00000180: 75b5 99be 67f6 9b3e 0a86 6a3e 601d 03bd
-0.19223875 -0.30724716 -0.09479925 0.04472077 -0.26204553 -0.024154276 0.10257065 -0.08975826
-0.24291211 -0.14962909 0.26551464 0.052609593 -0.3058893 -0.07202241 0.26339987 -0.24756867
-0.04356 0.286029 0.049572676 -0.2996836 -0.2689414 0.031249434 0.06749725 -0.046984762
0.19162151 0.25868234 0.012611449 -0.039884627 0.23333594 -0.024659723 -0.20143116 -0.24268281
-0.17447877 0.12838525 0.043114692 -0.0066788793 0.19227818 0.00223732 0.19966462 0.18930396
-0.24164778 0.11029267 0.049412787 -0.060005307 -0.178853 0.03793302 0.08076501 0.16460365
0.27134243 0.021501541 -0.126318 0.03650865 -0.18274665 -0.10617177 0.28564683 -0.21268547
0.026779413 -0.28293088 0.20310429 -0.2573842 0.0011487603 0.1481246 0.064457536 0.21380994
-0.22115996 0.16328532 0.23330638 0.024932772 0.23163095 -0.28686044 0.31318447 0.09047824
-0.17548649 -0.09448373 0.14173114 -0.2485954 -0.26997188 -0.27361226 -0.24757083 0.13684425
0.26433358 0.004142672 -0.20702231 0.059565812 -0.12039745 0.31466344 0.19856086 0.30798098
-0.28543636 -0.096473694 -0.07350002 0.20474425 -0.22777154 0.20210072 -0.29959452 -0.1851431
-0.30021253 0.30461428 0.22902694 -0.032010436

2.weight f4 [10, 100]
00000000: a719 c23d c151 8e3d c421 de3c 9583 a6bd
00000010: 057a b0bd b5eb 853d e87e eebc 192f ca3d
00000020: 27c2 59bd cc46 e43c 7266 743d f1a9 803d
00000030: d8eb 983c 3aed b8bd 7029 043c bf96 983d
00000040: 708a 523c 5f96 c6bd 9b18 9c3d f002 2ebc
00000050: 689a 803c 90d9 003c 32ff c7bd 79bc cb3d
00000060: bc74 d03c df5e c73d 8eb3 703d f54b 8c3d
00000070: 0051 673a 00c1 b0bd a828 b8bc ff85 933d
00000080: 7dca 4cbd d053 993b 0645 16bd 7825 89bc
00000090: b1e4 b23d df44 8e3d 2440 da3c 8007 d7bc
000000a0: 0060 3a3c 9a7e 0d3d 707e 393c 3825 dfbc
000000b0: 2d42 863d 7323 97bd 1a77 3ebd 70af 65bd
000000c0: 4cd4 e33c a82e 963c 4560 9a3d e255 1d3d
000000d0: dc41 07bd cd0c c63d c054 0a3b d4c9 b53c
000000e0: 6032 9cbc e002 af3b 7283 bbbd 1b94 b2bd
000000f0: c0ec 61bc b01f aebb 36da 0fbd 0ce2 ae3c
00000100: dbf4 813d 2042 e03b 38c5 adbc 8d78 7cbd
00000110: 5051 8e3b 4a4e 58bd 8077 5cbd fe92 313d
00000120: 26dc 99bd 01c3 b03d 7e7b 8dbd d05b 38bc
00000130: da78 bfbd f390 a2bd 9a20 b6bd a10d 8b3d
00000140: 82a3 213d aa6c b7bd 507c adbb f137 9f3d
00000150: 8876 eebc 0f0d b83d 1e91 263d f08d 6fbc
00000160: 30fe 61bc 92ff 1c3d f018 a2bd c80f a33c
00000170: 7fd1 a93d d68b 6a3d bd8c 1abd 1716 51bd
00000180: 7057 273c 8094 8ebc f684 15bd 55ef 9bbd
00000190: f273 b5bd 000c 5539 6a30 2ebd 426c 683d
000001a0: 605a 2bbd b457 853c f22f 3d3d 6a57 40bd
000001b0: 391d cc3d 5e9a 473d 4035 1fbb 78a3 fbbc
000001c0: 54bd c63c 5052 57bc 4def 75bd 63ee ca3d
000001d0: 209f ae3c 6217 4d3d d252 6c3d 1070 34bc
000001e0: 7f26 cbbd f069 423c 0a70 51bd 1b16 99bd
000001f0: 5270 0e3d ab44 9f3d 4651 0c3d 539e cb3d
00000200: 06ff 2b3d 1ede 063d a1db b03d abc3 aa3d
00000210: c0ef 79bd 494a a73d 30ed 473c 331d cb3d
00000220: 5cf5 0fbd c24e 5f3d 52e1 623d d003 613c
00000230: 82ef cabd 6edf 233d 5098 353c 6a3c 213d
00000240: 682c 713c c060 d5ba f7f4 913d dd35 aebd
00000250: 424b 743d 5777 2fbd 05ec 90bd d387 52bd
00000260: a57c 983d 2c34 9e3c dadb c4bd 54bc 0abd
00000270: 35c1 acbd d0b4 6a3c a09d 00bd b9a8 be3d
00000280: 210f c73d 5167 b93d 448f fa3c 9da6 5dbd
00000290: a075 dabc ca49 33bd 9b8e 953d eabf 1e3d
000002a0: 364c 0abd 80de 9cbd 225f 5d3d 72ca 4f3d
000002b0: 06c4 153d 80df 243c 78b2 d8bc 26c3 0a3d
000002c0: e098 82bd 40ba 05bb 2214 1a3d ca39 6fbd
000002d0: ea18 51bd d072 7fbd 1408 02bd 8c8e c93c
000002e0: 7734 bc3d 1362 9a3d 3e47 95bd 62f6 1c3d
000002f0: e814 42bc c83a a4bc b9da 9e3d 3098 c53b
00000300: e09c bbbc 6619 503d 990c af3d 02d5 003d
00000310: b7aa 3cbd 8927 953d ee8a 293d 4849 97bc
00000320: 95b1 b2bd 0e0b 453d be85 6d3d c91d 8e3d
00000330: 07bb a43d 8c06 8dbc 28c3 5b3c 8231 8fbd
00000340: 2554 b93d 4c6f 8d3c 43c5 bfbd 6c6e 94bc
00000350: 701a 57bc 01a3 c93d deba 0c3d 3482 90bc
00000360: bd2e b63d e0e4 b33c 077c 2ebd 47dc 4bbd
00000370: f72b ad3d 8a1e 643d cd3d 8f3d 0c59 9b3c
00000380: 60ad 953c 123e 253d d8b5 89bd 4e48 a6bd
00000390: 6cea acbc 0cbe ed3c 1b1c c43d 3646 94bd
000003a0: e823 f7bc 7209 003d 8cf9 d2bc 5fdc 8c3d
000003b0: a698 023d 8684 783d 2094 22bd bc4d ee3c
000003c0: e0bf f4bc 53c0 bd3d 9133 923d 55c4 85bd
000003d0: bb3a b3bd dcf1 84bd e3ec b3bd 8095 ffbc
000003e0: 8424 d73c 666b 04bd 98da bebd d3d0 a9bd
000003f0: a945 943d a44e 80bd 35fe bdbd a00e afbb
0.09477549 0.06949187 0.02711571 -0.08130566 -0.086170234 0.06539098 -0.029113248 0.098722644
-0.053163674 0.02786579 0.059668012 0.06282414 0.018667147 -0.090296224 0.00806652 0.074506275
0.012850389 -0.0969665 0.076218806 -0.010620818 0.015698627 0.007864371 -0.097654715 0.09948058
0.025446288 0.09734892 0.058764987 0.06850425 0.00088240206 -0.08630562 -0.022480324 0.07203292
-0.049997795 0.0046791807 -0.03668692 -0.0167415 0.08735026 0.0694673 0.026641913 -0.026248693
0.011375427 0.034544565 0.011321649 -0.027239427 0.06555591 -0.07379808 -0.046500303 -0.056075513
0.027811192 0.018332794 0.07537893 0.038411982 -0.033021793 0.0967041 0.0021107644 0.022190966
-0.01906699 0.005340919 -0.091559306 -0.08719655 -0.013789356 -0.005313836 -0.03512021 0.021348022
0.063455306 0.00684382 -0.021212205 -0.061638404 0.0043431893 -0.052809037 -0.0538249 0.043353073
-0.07512693 0.08630944 -0.0690832 -0.011252359 -0.093492225 -0.07937803 -0.08892937 0.06789709
0.039462574 -0.08956273 -0.00529436 0.07774342 -0.029109254 0.08986866 0.04066574 -0.014621243
-0.013793513 0.03832967 -0.07914913 0.019904986 0.08291911 0.057262264 -0.037731875 -0.051046457
0.010213718 -0.017404795 -0.036503755 -0.07614008 -0.088600054 0.00020317733 -0.04252664 0.056743868
-0.041834235 0.016277172 0.046188302 -0.046958365 0.09966511 0.0487312 -0.0024293214 -0.030717596
0.0242602 -0.013142183 -0.060042668 0.0990875 0.021316111 0.050071128 0.05769617 -0.011013046
-0.09919452 0.011866078 -0.05113224 -0.074749194 0.034775086 0.07776769 0.034257196 0.09942307
0.041991256 0.03292667 0.08635641 0.08338102 -0.06101966 0.08168466 0.012202546 0.09917679
-0.035146102 0.05451847 0.055390663 0.013733819 -0.09908964 0.040008 0.011083677 0.039364256
0.01472006 -0.0016279444 0.071268015 -0.08506367 0.059642084 -0.04283842 -0.07076267 -0.051399063
0.07445649 0.019311987 -0.09612246 -0.03387101 -0.08435289 0.014325336 -0.031400323 0.09309525
0.097196825 0.09052909 0.030585892 -0.054113973 -0.026667416 -0.043771543 0.073025905 0.038757242
-0.033764087 -0.07659626 0.054045804 0.050730176 0.036563896 0.010063052 -0.026452288 0.033877514
-0.06376815 -0.0020405203 0.037616856 -0.05840472 -0.05104915 -0.062365353 -0.031745985 0.024604104
0.091896944 0.075382374 -0.07288979 0.038320906 -0.011845805 -0.02004756 0.07756562 0.006030105
-0.022901952 0.05080547 0.08547325 0.03145314 -0.046061244 0.07282931 0.04139226 -0.01846756
-0.08725277 0.048106246 0.057988875 0.06939275 0.08043485 -0.017215036 0.013413228 -0.06991865
0.090492524 0.017264985 -0.093637966 -0.01811906 -0.013128862 0.09845544 0.034357898 -0.01764021
0.08895633 0.021959722 -0.04259875 -0.04977062 0.08455651 0.055693187 0.069942094 0.01896336
0.018271148 0.040342398 -0.06724137 -0.0811926 -0.021107875 0.029021285 0.09575673 -0.07239954
-0.030168489 0.031259008 -0.025753759 0.0687797 0.03188386 0.06067326 -0.039692044 0.029089801
-0.02987665 0.092651986 0.07138742 -0.06531588 -0.08751436 -0.064914435 -0.08785417 -0.031199217
0.02626253 -0.032328986 -0.09319037 -0.08291783 0.07239849 -0.062649995 -0.09277002 -0.0053423196

2.bias f4 [10]
00000000: a2b7 213d 185c b7bd afb4 bdbd 74b6 c23c
00000010: a8af bcbd 3350 a1bd 6309 5abd ba6e 99bd
00000020: 78e3 b93c f041 52bd
0.039481767 -0.08953112 -0.09262978 0.023768641 -0.09213191 -0.07876625 -0.053231608 -0.074918225
0.022691473 -0.051332414

4.weight f4 [1, 10]
00000000: 00aa ceba a780 37be fb30 8a3e 3c6e 0f3e
00000010: f525 863e 9ae5 e2bd b2cb 153e 4846 113e
00000020: 7607 4cbe 80a2 463d
-0.0015767217 -0.1792017 0.26990494 0.14006895 0.26200834 -0.11078949 0.14628485 0.14186966
-0.19924721 0.048494816
